examples/predict/epoch_20000/classifierFC_epoch_10000.pth (torch, 137055 bytes, 6 tensors)

fc1.weight f4 [128, 128]
0.15193863 0.06509232 -0.086200975 0.03855656 -0.1170147 0.053863093 0.1292331 -0.045321938
-0.026720574 0.030049052 -0.038185645 0.10868855 -0.040790215 -0.17873187 -0.06478638 0.068028316
-0.10958479 0.009879736 -0.0347627 0.06571056 0.03552438 -0.030090593 0.053800702 0.13844705
-0.08260747 -0.058341913 0.016681885 -0.08495495 0.04753999 0.0579485 0.09262253 0.083341755
0.064273275 0.12414528 0.022575928 -0.08107596 0.038905572 0.04180042 -0.036606535 -0.044096388
0.032324634 0.041376658 0.080353126 -0.26875636 0.039239552 0.09508683 0.058977008 -0.03779063
0.04480517 0.092758074 0.10726492 0.016931849 0.03117193 0.02273716 0.005608625 -0.013870231
-0.021414062 -0.105269566 0.028608764 0.053850356 -0.036329538 0.031622674 0.09025388 0.081410915
0.04899805 -0.1483391 0.05757498 0.0058499714 -0.11546208 0.091282025 -0.055587016 0.05006886
0.02616847 0.003422767 -0.00972559 -0.09246942 0.08803785 0.02454058 0.105529785 -0.06399616
-0.048897758 0.024454737 -0.07959518 0.057733763 0.0772533 -0.103361815 -0.008441827 0.07068788
-0.016142754 -0.014155122 0.04861605 -0.07011862 -0.063868605 0.13575543 0.002150514 0.06753922
0.0038543947 0.10525961 0.060137354 -0.056370996 -0.012295431 -0.025120031 0.025164112 0.007469561
-0.02330486 0.019390473 -0.08158672 0.017941602 -0.054532982 0.0948084 0.04227663 -0.09257268
-0.113126576 -0.15086257 -0.064522006 0.0677371 -0.043469023 0.15272415 -0.13523683 -0.023458937
-0.113492504 -0.055062164 0.016676059 0.0508852 -0.07499976 0.105280794 -0.0094392095 -0.12425258
0.084041536 0.04991112 0.004351496 -0.078422315 -0.0052432367 0.030414239 0.037005346 0.061011307
-0.0773893 -0.11646935 0.15440327 0.11424932 -0.11151471 0.056959964 -0.067955434 -0.010865286
0.10213666 -0.00746265 0.06519057 -0.042589504 -0.071533464 -0.062166277 0.07724035 0.064726956
0.0642916 0.04137037 -0.0034836098 -0.03987202 -0.0039218003 0.019457549 0.15566656 -0.006079523
-0.0712654 -0.17403814 0.039110906 0.16334091 -0.06413684 -0.0030803438 -0.08388408 0.13282143
0.10251563 -0.012314012 -0.04221481 0.012191854 -0.23084645 -0.022561245 -0.063599266 0.02038473
-0.10836806 0.23763037 -0.035183262 -0.16410457 -0.10110405 0.13358296 -0.008330096 -0.121482566
-0.00421104 0.09186047 -0.07384604 0.16416518 -0.14054644 -0.072953776 0.035516575 0.012365459
0.070126325 -0.12227459 0.152937 -0.03566435 -0.15187187 -0.11247679 -0.10376398 -0.02391357
0.05028847 -0.050013162 -0.008161845 0.05324466 0.008538018 0.11879149 -0.37100896 -0.07658653
-0.040133186 0.17810224 0.0004970961 0.09724908 0.010731255 -0.27877507 -0.0064733755 0.0007143871
0.034122348 0.019540567 -0.028679717 0.029598998 -0.009737568 -0.09617934 -0.10266272 0.024493711
0.112254135 0.1056879 -0.014618279 -0.15617986 -0.028962245 -0.08914583 0.003372065 0.23044083
0.050543748 -0.09554485 -0.0113735655 -0.030054366 -0.24695447 -0.15305714 0.018929236 -0.042394836
0.020662662 0.11919923 0.08910893 0.042044673 0.26821414 -0.08770769 0.05364333 -0.037904784
0.006635896 0.058847867 0.24979126 -0.005121004 0.008169058 0.04095112 -0.14528796 0.11505377
00000000: cd95 1b3e 1f4f 853d 238a b0bd 7ced 1d3d
00000010: 67a5 efbd 8c9f 5c3d af55 043e 7fa3 39bd
00000020: 1be5 dabc 6e29 f63c 8d68 1cbd 1a98 de3d
00000030: a413 27bd 7d05 37be b9ae 84bd 6e52 8b3d
00000040: fe6d e0bd 9ede 213c 5563 0ebd 4293 863d
00000050: 0382 113d 8c80 f6bc 205e 5c3d 10c5 0d3e
00000060: 1b2e a9bd eef7 6ebd 73a8 883c dcfc adbd
00000070: 4bb9 423d 685b 6d3d e2b0 bd3d 15af aa3d
00000080: b5a1 833d e13f fe3d 27f1 b83c 270b a6bd
00000090: 735b 1f3d eb36 2b3d bcf0 15bd 6a9e 34bd
000000a0: d666 043d 927a 293d 2e90 a43d 6f9a 89be
000000b0: a7b9 203d e2bc c23d e091 713d 59ca 1abd
000000c0: a085 373d f2f7 bd3d b6ad db3d a9b4 8a3c
000000d0: 465c ff3c 4843 ba3c 8ec8 b73b f73f 63bc
000000e0: 8b6c afbc 9297 d7bd ed5c ea3c 3192 5c3d
000000f0: 48ce 14bd c786 013d 07d7 b83d c4ba a63d
00000100: 2eb2 483d 34e6 17be bed3 6b3d 1eb1 bf3b
00000110: 6277 ecbd 12f2 ba3d 36af 63bd 0115 4d3d
00000120: 425f d63c 8050 603b 1558 1fbc 9b60 bdbd
00000130: 304d b43d 5409 c93c 0020 d83d 6b10 83bd
00000140: 0449 48bd 4d55 c83c cc02 a3bd 3d7a 6c3d
00000150: fa36 9e3d 5caf d3bd 974f 0abc cfc4 903d
00000160: cf3d 84bc e3ea 67bc a021 473d 5a9a 8fbd
00000170: 8bcd 82bd 7903 0b3e a3ef 0c3b 0152 8a3d
00000180: 039a 7c3b 5a92 d73d 9652 763d 46e5 66bd
00000190: c772 49bc 86c8 cdbc f824 ce3c 38c3 f43b
000001a0: d5e9 bebc c5d8 9e3c f016 a7bd 44fa 923c
000001b0: fa5d 5fbd e82a c23d 422a 2d3d bf96 bdbd
000001c0: e8ae e7bd b87b 1abe 1d24 84bd c0b9 8a3d
000001d0: 930c 32bd b863 1c3e 867b 0abe f52c c0bc
000001e0: c26e e8bd dd88 61bd 3b9c 883c 006d 503d
000001f0: 7999 99bd 759d d73d eaa6 1abc 2378 febd
00000200: f81d ac3d 9a6f 4c3d ff96 8e3b e19b a0bd
00000210: 75cf abbb 4827 f93c eb92 173d fee6 793d
00000220: 487e 9ebd 7c87 eebd e41b 1e3e 8cfb e93d
00000230: d361 e4bd da4e 693d 382c 8bbd 5004 32bc
00000240: 062d d13d 3f89 f4bb a282 853d 5572 2ebd
00000250: 2380 92bd 11a2 7ebd 3030 9e3d 918f 843d
00000260: 50ab 833d fa73 293d 464d 64bb d850 23bd
00000270: 7282 80bb 7065 9f3c 0e67 1f3e bc36 c7bb
00000280: 98f3 91bd 0e37 32be c232 203d d742 273e
00000290: 2d5a 83bd 98df 49bb 6bcb abbd 5702 083e
000002a0: b7f3 d13d b6c0 49bc 70e9 2cbd 58c0 473c
000002b0: 0363 6cbe 5cd2 b8bc 5540 82bd e1fd a63c
000002c0: 13f0 ddbd 6055 733e 531c 10bd 070b 28be
000002d0: a40f cfbd f9c9 083e f47a 08bc dacb f8bd
000002e0: c4fc 89bb 5821 bc3d 983c 97bd eb1a 283e
000002f0: 68eb 0fbe ca68 95bd d479 113d 7f98 4a3c
00000300: 649e 8f3d 1a6b fabd 849b 1c3e c814 12bd
00000310: 4d84 1bbe 3b5a e6bd 3682 d4bd 64e6 c3bc
00000320: 48fb 4d3d 9ada 4cbd 42b9 05bc 1317 5a3d
00000330: 0be3 0b3c f448 f33d e3f4 bdbe 66d9 9cbd
00000340: b262 24bd 6f60 363e 8e4f 023a 872a c73d
00000350: 25d2 2f3c 9bbb 8ebe 9c1e d4bb b545 3b3a
00000360: e0c3 0b3d 8a13 a03c baf1 eabc 9979 f23c
00000370: 528a 1fbc acf9 c4bd d540 d2bd 09a7 c83c
00000380: 7fe5 e53d e672 d83d 8281 6fbc 9ded 1fbe
00000390: 3b42 edbc 1792 b6bd ddfd 5c3b aef8 6b3e
000003a0: f606 4f3d 05ad c3bd 3158 3abc 9334 f6bc
000003b0: a2e1 7cbe 03bb 1cbe 7c11 9b3c 35a6 2dbd
000003c0: be44 a93c ba1e f43d be7e b63d 0937 2c3d
000003d0: 5d53 893e 17a0 b3bd 1cb9 5b3d 0c42 1bbd
000003e0: ee71 d93b 760a 713d 48c9 7f3e 18ce a7bb
000003f0: 83d7 053c 5dbc 273d 5ec6 14be 50a1 eb3d

fc1.bias f4 [128]
0.1293572 -0.04751338 -0.072260715 0.026018059 -0.059035998 -0.06254237 0.1136149 0.08099878
0.05310218 -0.055094786 0.053120606 -0.008274401 0.022423206 -0.0032399492 0.035247 0.052793648
-0.047302477 0.07018353 -0.09319995 0.024949012 0.115263276 -0.038778417 0.055700716 0.019318257
-0.0928705 0.00986121 0.050539754 0.015774166 -0.034224976 0.09923061 -0.042430304 0.05717801
-0.056366924 -0.026022613 -0.05643311 0.05216912 0.07030727 -0.039533716 0.021850962 -0.07017398
-0.12204533 0.025924508 0.09514632 0.07441592 -0.10213562 0.06665512 0.06269638 -0.025445472
-0.027799873 -0.011867763 -0.043461856 0.04191044 0.09586045 -0.035665404 -0.05342666 0.007304926
0.010943691 0.06214261 -0.10190683 0.012735941 0.002563287 -0.049199358 -0.12973517 -0.08841749
-0.015611733 -0.09008899 -0.0036355052 -0.061940942 -0.119992785 0.007539514 -0.00087269786 -0.1009372
0.07075009 -0.08041107 -0.026118167 -0.050212767 0.049174517 0.034061365 -0.0031902043 -0.060567264
-0.0673755 -0.024712084 -0.0146428505 -0.03648733 0.08908276 0.08972942 0.0046160137 -0.058201183
-0.0452296 0.020012995 -0.07550062 -0.0009018471 0.033931144 -0.021198101 0.0028913505 0.032920647
-0.031438466 0.028396988 0.040443443 0.024585428 -0.043085538 -0.03220849 -0.07741998 0.02807052
0.12394034 0.06093317 -0.041571885 0.04687774 0.084255934 0.012730548 0.0039528 0.055385146
0.018625272 0.017680284 0.0339 0.033146404 0.025791317 -0.06639391 0.013234314 0.056394342
-0.0715792 -0.02440117 -0.07715151 -0.04063699 -0.09010012 0.13771817 -0.046531506 0.05775855
00000000: 3776 043e 649d 42bd 6dfd 93bd d323 d53c
00000010: bbcf 71bd 3716 80bd eeae e83d b0e2 a53d
00000020: ac81 593d 12ab 61bd fe94 593d 5a91 07bc
00000030: dfb0 b73c 5455 54bb 295f 103d 273e 583d
00000040: 3ec0 41bd 62bc 8f3d 9edf bebd df61 cc3c
00000050: 270f ec3d 1ed6 1ebd 6f26 643d 5241 9e3c
00000060: e432 bebd ea90 213c c602 4f3d d338 813c
00000070: 7d2f 0cbd 6b39 cb3d 66cb 2dbd 7d33 6a3d
00000080: 01e1 66bd 602d d5bc 6826 67bd 4aaf 553d
00000090: 42fd 8f3d 1bee 21bd ca00 b33c 60b7 8fbd
000000a0: e7f2 f9bd a25f d43c 13dc c23d 6067 983d
000000b0: 7b2c d1bd 7b82 883d f666 803d 0673 d0bc
000000c0: 8fbc e3bc 0171 42bc 0f05 32bd 48aa 2b3d
000000d0: 7c52 c43d e315 12bd ead5 5abd 295e ef3b
000000e0: 2b4d 333c 4089 7e3d 87b4 d0bd 69aa 503c
000000f0: d2fc 273b 4485 49bd 4cd9 04be 3b14 b5bd
00000100: 5bc8 7fbc 9480 b8bd a841 6ebb c9b5 7dbd
00000110: c7be f5bd 070e f73b c3c5 64ba 2ab8 cebd
00000120: 6ce5 903d 8fae a4bd c4f5 d5bc e7ab 4dbd
00000130: 386b 493d ee83 0b3d bf12 51bb 6115 78bd
00000140: 2bfc 89bd ff70 cabc 91e8 6fbc bd73 15bd
00000150: 0671 b63d 0fc4 b73d ee41 973b 5d64 6ebd
00000160: ac42 39bd 4bf2 a33c 12a0 9abd ef69 6cba
00000170: 62fb 0a3d a4a7 adbc d07c 3d3b cdd7 063d
00000180: 9fc5 00bd cda0 e83c 06a8 253d 6167 c93c
00000190: 767a 30bd 0ded 03bd 5e8e 9ebd 26f4 e53c
000001a0: 6fd4 fd3d 0f95 793d 4847 2abd e002 403d
000001b0: 608e ac3d ca93 503c 7d86 813b 89db 623d
000001c0: 0794 983c 3ed6 903c bada 0a3d 86c4 073d
000001d0: 5048 d33c 88f9 87bd bcd4 583c c1fd 663d
000001e0: 1e98 92bd f6e4 c7bc 9c01 9ebd f972 26bd
000001f0: 6986 b8bd fe05 0d3e d297 3ebd 3b94 6c3d

fc2.weight f4 [128, 128]
0.039912704 0.09811078 0.047470357 -0.013913763 0.02433228 -0.18388532 -0.0004827767 -0.011120131
-0.09198121 -0.11879225 0.25511718 0.17262693 -0.064012885 0.04546678 0.0022520085 0.0618807
-0.033498492 -0.048347577 0.028082367 0.05813886 0.016765963 0.14475992 -0.0019621544 0.01880991
0.035999697 -0.019201271 0.07887151 0.0071053905 -0.052212987 -0.022498455 -0.08794351 -0.021772971
0.07058801 -0.015523743 -0.012196076 -0.0411011 0.18567404 -0.00042950673 0.11766839 -0.024242416
0.0707317 -0.014347757 0.004348179 -0.056405675 -0.029477106 -0.017623516 -0.005774751 0.15982395
-0.12854171 -0.16130705 0.06423138 -0.050828055 0.09274793 -0.042530995 -0.019667562 0.122922696
-0.13397734 -0.05076157 0.020780753 0.12534826 -0.12865677 0.024619 0.0175403 0.024546549
0.022870598 0.019680515 0.0087334905 -0.06665293 0.0042031747 0.047513057 0.035532825 0.034294967
0.0048658783 0.0027358623 -0.16433746 -0.004759645 -0.007837102 0.09620881 0.18802604 0.019397102
0.037398063 -0.032788392 0.11480285 -0.17807275 0.030723443 0.01171676 -0.1859895 0.0059791273
0.024316952 -0.13033906 0.027809706 0.040781632 -0.028181728 0.012360969 0.07415639 -0.091504455
0.01054609 0.058761723 0.036661364 0.09993811 0.011320593 -0.05367673 -0.04237563 -0.04813452
0.005777407 0.06540827 -0.06908071 0.0020898322 0.023267495 -0.18375841 -0.0026542975 -0.13676384
-0.13555875 -0.083795935 0.12474216 -0.12769736 0.09664926 -0.022538763 -0.24487634 -0.031455927
0.0006705295 0.043326378 -0.0054267175 0.0053763995 0.043531172 -0.03137611 0.035748582 0.080472864
-0.0098473495 -0.19625199 -0.01256653 0.033391405 -0.020519843 0.074951574 0.04188667 0.03466523
0.1321893 0.10894322 -0.105121836 -0.20606618 0.018120697 -0.021930844 0.068892814 -0.05772164
-0.043057565 -0.014691854 -0.023787664 0.04052431 -0.025040207 -0.016898435 0.023319306 -0.059379183
0.0070255073 -0.02138875 -0.043090343 0.039960552 0.018205298 0.06270227 0.110362105 0.05389803
0.021020655 -0.020810023 -0.0067271884 0.10076207 -0.137146 0.037397217 -0.098863274 -0.07389321
0.02006041 0.00035962975 -0.013434749 -0.035879325 -0.017231045 -0.048769116 -0.04475963 -0.15134226
0.00074982975 0.046362698 -0.1266637 0.0063639465 0.01662387 -0.027865294 -0.06503746 -0.17970836
0.059062243 0.10876332 0.034396093 -0.054538414 0.12858538 -0.022665476 0.01185754 -0.014723155
-0.04818318 0.0564121 0.07572911 0.04715784 -0.009243083 -0.024377765 -0.1004838 0.038015004
0.018590877 0.012475969 0.07575163 -0.06182511 -0.01405211 -0.10526516 -0.106405 -0.02591279
-0.17340513 0.019683765 -0.19941111 0.18175337 0.06212667 0.006457526 0.1887041 0.058916874
0.04318651 0.009668225 -0.0019374498 -0.0833907 0.081756815 -0.004856015 -0.07260156 0.14813651
-0.08892031 -0.07900146 0.026407922 -0.036072195 -0.025878415 -0.03509324 0.016774854 -0.0047618872
-0.001051024 0.03642842 0.011259481 0.0244559 0.0009802764 0.07068251 -0.0017426558 0.03262442
0.12798116 0.081449136 -0.25024506 0.08744572 -0.103527464 0.01218353 0.22317442 0.04737231
0.023948425 -0.024261108 0.020671753 0.10563425 -0.025113745 0.03328119 -0.13751628 -0.032781985
00000000: 817b 233d 4eee c83d 4770 423d 8df6 63bc
00000010: 7d54 c73c 6f4c 3cbe 311d fdb9 3631 36bc
00000020: a560 bcbd 5a49 f3bd b89e 823e 1dc5 303e
00000030: 3019 83bd 603b 3a3d 6f96 133b 9e76 7d3d
00000040: b735 09bd 1c08 46bd fe0c e63c 0323 6e3d
00000050: c658 893c f23b 143e 7d97 00bb 3e17 9a3c
00000060: 6b74 133d fc4b 9dbc 6387 a13d 56d4 e83b
00000070: 49dd 55bd ae4e b8bc ba1b b4bd 3b5d b2bc
00000080: 7290 903d 4c57 7ebc 0dd2 47bc a159 28bd
00000090: 5621 3e3e 6b2f e1b9 20fc f03d 0898 c6bc
000000a0: c8db 903d db12 6bbc 2b7b 8e3b a309 67bd
000000b0: f979 f1bc 315f 90bc 1f3a bdbb e4a8 233e
000000c0: 70a0 03be ad2d 25be be8b 833d 1431 50bd
000000d0: a0f2 bd3d fb34 2ebd de1d a1bc e5be fb3d
000000e0: 5b31 09be 5deb 4fbd 663c aa3c 4b5b 003e
000000f0: 9abe 03be c9ad c93c adb0 8f3c d815 c93c
00000100: 1f5b bb3c 0839 a13c ea16 0f3c 5581 88bd
00000110: c9ba 893b 0d9d 423d de8a 113d e178 0c3d
00000120: f271 9f3b 274c 333b 1448 28be ccf6 9bbb
00000130: 3067 00bc 2009 c53d e689 403e ace6 9e3c
00000140: b62e 193d 1f4d 06bd c21d eb3d b458 36be
00000150: bbaf fb3c a7f7 3f3c 0874 3ebe 8eec c33b
00000160: 5834 c73c 9a77 05be 2ed1 e33c a40a 273d
00000170: 5edd e6bc a985 4a3c 4edf 973d b066 bbbd
00000180: 82c9 2c3c 22b0 703d 3a2a 163d 5aac cc3d
00000190: 027a 393c 21dc 5bbd 1292 2dbd b428 45bd
000001a0: 6750 bd3b c5f4 853d 307a 8dbd 91f5 083b
000001b0: 799b be3c 2a2b 3cbe b9f3 2dbb d20b 0cbe
000001c0: eacf 0abe 349d abbd d178 ff3d 19c3 02be
000001d0: 0cf0 c53d 36a3 b8bc ddc0 7abe eed7 00bd
000001e0: 79c6 2f3a 0077 313d 9bd2 b1bb 822c b03b
000001f0: be4d 323d 3c84 00bd 1b6d 123d f5ce a43d
00000200: c756 21bc 48f6 48be d9e3 4dbc 6dc5 083d
00000210: 3b19 a8bc 3680 993d 5b91 2b3d 21fd 0d3d
00000220: a25c 073e 9f1d df3d 1e4a d7bd 0303 53be
00000230: db71 943c 50a8 b3bc ad17 8d3d 876d 6cbd
00000240: 215d 30bd 1ab6 70bc 59de c2bc d2fc 253d
00000250: 1f21 cdbc 966e 8abc 2108 bf3c 9637 73bd
00000260: 3a36 e63b 7637 afbc 807f 30bd adad 233d
00000270: 4723 953c 0c6a 803d 8705 e23d 2ec4 5c3d
00000280: 8233 ac3c c879 aabc bf6f dcbb 585c ce3d
00000290: 0070 0cbe d32d 193d d478 cabd 5355 97bd
000002a0: bb55 a43c b08c bc39 6c1d 5cbc 33f6 12bd
000002b0: 1f28 8dbc 20c2 47bd e055 37bd 77f9 1abe
000002c0: 3990 443a d0e6 3d3d 21b4 01be a788 d03b
000002d0: c82e 883c c245 e4bc 5c32 85bd 7805 38be
000002e0: 40eb 713d 4ebf de3d ebe2 0c3d ac63 5fbd
000002f0: e3ab 033e f3ac b9bc 2146 423c 6339 71bc
00000300: ba5b 45bd 6010 673d dd17 9b3d 9428 413d
00000310: 4d70 17bc e1b3 c7bc 73ca cdbd 9fb5 1b3d
00000320: e54b 983c 0268 4c3c ac23 9b3d 543c 7dbd
00000330: d23a 66bc 4395 d7bd ddea d9bd 0f47 d4bc
00000340: 1d91 31be d93f a13c 6d32 4cbe 8e1d 3a3e
00000350: 8978 7e3d a799 d33b a63b 413e d252 713d
00000360: 57e4 303d 7a67 1e3c 07f2 fdba bec8 aabd
00000370: 1e70 a73d 351f 9fbb 20b0 94bd 19b1 173e
00000380: da1b b6bd 84cb a1bd 6d55 d83c 70c0 13bd
00000390: f8fe d3bc eebd 0fbd 6b6b 893c 9b09 9cbb
000003a0: 83c2 89ba f835 153d b079 383c bd57 c83c
000003b0: 9e7c 803a fec1 903d d369 e4ba 2fa1 053d
000003c0: 7e0d 033e cece a63d 1f20 80be be16 b33d
000003d0: 3506 d4bd 6e9d 473c d687 643e 7809 423d
000003e0: 7d2f c43c 3bbf c6bc cf57 a93c c556 d83d
000003f0: 57bb cdbc db51 083d 11d1 0cbe 6746 06bd

fc2.bias f4 [128]
0.11375754 -0.042002503 -0.049594805 0.15644939 0.041261774 0.07205397 -0.087867536 -0.05827886
-0.14187601 0.28703198 -0.121458046 0.07446929 0.022987358 0.0031017584 0.07295752 -0.14524578
-0.12940672 -0.37875807 -0.31304607 -0.044481184 0.0927392 -0.08311149 0.04631111 0.015248937
-0.08825748 -0.23509842 -0.0764432 0.35497028 0.015935719 -0.0040669222 -0.10012147 0.066682965
0.05825721 0.04131775 0.4483264 -0.12088639 -0.12517712 -0.03175982 0.060455434 -0.066967845
0.026455795 -0.3491323 0.0030280654 -0.088894404 -0.016844323 -0.11638956 0.03883794 0.04185234
-0.00058699615 -0.067729525 0.24051476 -0.12285656 -0.08230736 0.00944414 -0.45122334 0.1481994
0.0663749 -0.06656811 -0.14962985 0.05306893 0.095413744 -0.4363755 0.134721 0.19014579
0.0042767883 0.05083402 -0.04634468 -0.0967965 -0.15504624 -0.10721517 0.13416375 0.32090685
-0.090875715 -0.09271597 -0.41187766 0.03621504 0.05601135 0.14862601 0.14435732 -0.024180407
0.06181486 0.08475709 0.12193303 0.12814797 -0.053249545 0.1351214 -0.116706595 -0.07622991
-0.06347284 0.06853634 -0.06280957 -0.111598484 0.12907235 -0.06804632 -0.11556218 -0.051697537
0.12232392 -0.037337154 -0.03072066 0.11238996 -0.024899673 0.04245886 -0.022684274 -0.35288382
-0.38417286 -0.074285656 0.009203656 0.08098062 -0.040269457 0.055037998 0.19265611 -0.034612965
-0.39435786 0.044844255 -0.05962572 0.04993484 0.35369664 -0.3872801 -0.0712336 -0.15582702
-0.033902653 -0.09428231 -0.046827972 0.3316379 0.020133995 0.13813356 -0.08276202 -0.4763304
00000000: b7f9 e83d d10a 2cbd ec23 4bbd 4534 203e
00000010: 1b02 293d 0891 933d e5f3 b3bd d0b5 6ebd
00000020: f247 11be dbf5 923e ffbe f8bd 5b83 983d
00000030: fc4f bc3c df46 4b3b c16a 953d 4fbb 14be
00000040: 3283 04be 94ec c1be 9347 a0be e731 36bd
00000050: 0dee bd3d 5b36 aabd b8b0 3d3d add6 793c
00000060: 56c0 b4bd a4bd 70be 418e 9cbd aabe b53e
00000070: a08b 823c d143 85bb 7c0c cdbd 1491 883d
00000080: 1d9f 6e3d cd3c 293d 0a8b e53e 4993 f7bd
00000090: 6e2e 00be 9616 02bd 1ea0 773d 7026 89bd
000000a0: d3b9 d83c 78c1 b2be 8272 463b 450e b6bd
000000b0: 1bfd 89bc a65d eebd 8814 1f3d 5c6d 2b3d
000000c0: a5e0 19ba c7b5 8abd 8049 763e 389c fbbd
000000d0: c390 a8bd 98bb 1a3c bf06 e7be 95c1 173e
000000e0: 90ef 873d dc54 88bd 9138 19be ce5e 593d
000000f0: 4868 c33d 9c6c dfbe 4df4 093e 94b5 423e
00000100: 4d24 8c3b 5537 503d ebd3 3dbd 3e3d c6bd
00000110: 71c4 1ebe a193 dbbd 3962 093e e74d a43e
00000120: 0c1d babd dfe1 bdbd a1e1 d2be 3956 143d
00000130: 286c 653d 6b31 183e 68d2 133e fd15 c6bc
00000140: 9431 7d3d 2095 ad3d 06b8 f93d 3939 033e
00000150: 321c 5abd 445d 0a3e de03 efbd 6d1e 9cbd
00000160: 0cfe 81bd c85c 8c3d 4ea2 80bd bf8d e4bd
00000170: 8b2b 043e de5b 8bbd ddab ecbd ccc0 53bd
00000180: f784 fa3d d8ee 18bd e5a9 fbbc b52c e63d
00000190: 66fa cbbc 57e9 2d3d 5fd4 b9bc 30ad b4be
000001a0: 4eb2 c4be 1423 98bd eeca 163c 2bd9 a53d
000001b0: 96f1 24bd 866f 613d a547 453e 53c6 0dbd
000001c0: 46e9 c9be 9cae 373d 193a 74bd 7a88 4c3d
000001d0: ba17 b53e 9449 c6be ece2 91bd 1e91 1fbe
000001e0: 82dd 0abd 1517 c1bd b0ce 3fbd 71cc a93e
000001f0: 0cf0 a43c e272 0d3e 227f a9bd 94e1 f3be

fc3.weight f4 [5, 128]
-0.11313785 0.071705356 0.08191814 0.08852878 0.059807114 0.06457368 0.05816633 0.08007593
0.03473206 0.015248078 0.08048736 -0.04004392 0.03302054 -0.06598332 -0.06458067 -0.049582805
-0.052669667 -0.008053504 -0.055675708 -0.025094133 -0.0690436 0.054814037 0.055567667 -0.017352179
-0.04621157 -0.047610153 -0.06244389 0.054847606 -0.06997492 -0.0030939737 -0.057754576 -0.0634825
-0.08510659 0.015836569 0.044689093 -0.033343554 -0.11101024 -0.029150827 0.07406019 0.018793145
0.012727382 -0.04432328 0.05178848 0.07144423 -0.04599034 -0.07570986 0.064069055 0.07732121
-0.059090536 -0.032712758 0.0787876 -0.08330233 -0.10347371 -0.045112047 -0.054458722 0.08339491
0.05616508 0.014687302 -0.02044631 0.038224116 0.11140695 -0.08441837 0.019348769 0.00937962
0.057242315 0.052102327 0.046802726 0.01538491 -0.08875852 -0.04990615 0.10162816 0.07027193
0.057844095 -0.04158341 -0.07887778 0.057369947 0.03703154 0.08564123 0.04828841 0.014437749
-0.055578433 0.080073416 0.086391 0.05619743 -0.022830985 0.071559705 -0.019892551 -0.018810598
0.051480453 0.03326057 -0.027030088 -0.02792348 -0.029868357 0.11018532 -0.08749436 -0.061327603
0.07030419 -0.060221463 0.011367309 0.088246934 -0.00019945992 0.026930023 -0.035853572 -0.019340457
-0.09648027 0.060708623 0.073247775 -0.010720222 0.05629009 0.036562197 -0.019994961 0.0014109594
-0.04938042 0.06986325 -0.06749382 -0.041086584 0.07831797 -0.03320889 -0.059065755 -0.06916902
0.02877744 -0.0021869063 0.061392624 0.08424309 0.0639181 0.060958378 -0.07119306 -0.011385074
-0.015048554 0.01438201 -0.057706214 -0.074034266 -0.06336286 -0.085555285 -0.05113139 -0.035136826
-0.070931084 -0.2444508 -0.039481755 0.047985744 0.043522626 0.051924553 0.03052157 0.1230959
0.10265468 0.30366945 -0.082349166 -0.100643575 0.05786066 -0.03293378 0.11259967 0.027402526
0.107756056 -0.07083203 0.11431006 0.07638867 0.056757756 0.060560804 0.06667725 0.04534202
0.0051489035 -0.100439504 0.06143138 0.14011447 0.06894834 0.08539781 0.03940271 -0.08020465
0.045672465 0.25234157 0.10381156 -0.019968424 0.070237964 0.099465944 -0.066075146 -0.049904216
-0.09984227 0.093915455 -0.134975 0.04335247 0.055364262 -0.013141318 -0.057089515 -0.0651445
-0.056413677 -0.075897045 0.1436919 -0.088548526 -0.05359847 -0.08483885 -0.14101097 -0.12441278
-0.05616888 -0.054222304 -0.06033103 -0.104019225 0.071386226 0.095143385 -0.040001705 -0.23260313
-0.04925315 -0.047993124 -0.076423354 -0.045793984 0.10359865 -0.08513665 -0.098303 -0.07151912
0.042680804 0.10495886 -0.085411415 -0.07528818 0.081885405 0.10466248 -0.06101336 0.09645677
-0.047866315 -0.08529265 -0.03097964 0.14160846 0.073860645 0.03809111 0.06309478 0.049773127
-0.10845509 0.05620878 -0.09281156 -0.07934963 -0.06748634 -0.06911216 -0.03535838 0.30953598
-0.10065202 -0.040905915 -0.029799515 -0.15439373 -0.053526323 -0.09860891 0.06826026 0.1181644
0.27142856 -0.058390178 0.06145973 0.073176205 -0.21388869 -0.042600475 0.093687005 0.08596494
-0.052758608 0.15993734 -0.029581262 -0.19234665 -0.033659626 -0.0877822 -0.07655699 -0.017486583
00000000: d1b4 e7bd 42da 923d b3c4 a73d 944e b53d
00000010: 4ef8 743d 353f 843d d13f 6e3d d9fe a33d
00000020: 3443 0e3d 13d3 793c 8fd6 a43d 1805 24bd
00000030: 8c40 073d 4322 87bd df42 84bd 5717 4bbd
00000040: 26bc 57bd d8f2 03bc 360c 64bd 3692 cdbc
00000050: bb66 8dbd af84 603d ec9a 633d 2826 8ebc
00000060: 5848 3dbd dd02 43bd 2ac5 7fbd e2a7 603d
00000070: 034f 8fbd 44c4 4abb 1090 6cbd 1d03 82bd
00000080: 5d4c aebd b1bb 813c e90b 373d 4093 08bd
00000090: 5659 e3bd b7cd eebc deac 973d 15f4 993c
000000a0: 8286 503c 548c 35bd 2820 543d 5a51 923d
000000b0: 5e60 3cbd c50d 9bbd a336 833d 955a 9e3d
000000c0: eb08 72bd d0fd 05bd 655b a13d 699a aabd
000000d0: 06ea d3bd 69c7 38bd 1c10 5fbd f3ca aa3d
000000e0: 5b0d 663d 02a3 703c 057f a7bc e490 1c3d
000000f0: 5429 e43d 8ae3 acbd 4f81 9e3c faac 193c
00000100: eb76 6a3d 4069 553d 37b4 3f3d fd10 7c3c
00000110: 07c7 b5bd 646a 4cbd 6d22 d03d bbea 8f3d
00000120: eeed 6c3d 5e53 2abd ac8a a1bd c0fc 6a3d
00000130: 62ae 173d ab64 af3d 11ca 453d 4f8c 6c3c
00000140: 36a6 63bd 88fd a33d c4ed b03d 472f 663d
00000150: 0c08 bbbc e58d 923d b4f5 a2bc af18 9abc
00000160: 2bdd 523d 3c3c 083d 346e ddbc c8bf e4bc
00000170: 7cae f4bc d7a8 e13d 3e30 b3bd a732 7bbd
00000180: a5fb 8f3d c8aa 76bd f33d 3a3c cfba b43d
00000190: 1d26 51b9 5a9c dc3c 32db 12bd e16f 9ebc
000001a0: 7397 c5bd 9ba9 783d ee02 963d dfa3 2fbc
000001b0: 7090 663d 3ec2 153d 79cc a3bc f1ef b83a
000001c0: 2043 4abd 7714 8f3d 333a 8abd 684a 28bd
000001d0: 2c65 a03d 0c06 08bd efee 71bd 7da8 8dbd
000001e0: aabe eb3c 3352 0fbb d576 7b3d a487 ac3d
000001f0: 7ee7 823d 7eaf 793d abcd 91bd 7688 3abc
00000200: 368e 76bc 86a2 6b3c 5a5d 6cbd 479f 97bd
00000210: 63c4 81bd 9c37 afbd 266f 51bd a2eb 0fbd
00000220: 5144 91bd 4f51 7abe 9fb7 21bd b38c 443d
00000230: c844 323d d7ae 543d 5f08 fa3c b419 fc3d
00000240: 9e3c d23d 907a 9b3e aea6 a8bd 381e cebd
00000250: 4dff 6c3d 92e5 06bd a89a e63d 437b e03c
00000260: 35af dc3d 6210 91bd 651b ea3d aa71 9c3d
00000270: d27a 683d 9b0e 783d 158e 883d 8eb8 393d
00000280: 22b8 a83b 3ab3 cdbd 799f 7b3d 2b7a 0f3e
00000290: ca34 8d3d 0ce5 ae3d bc64 213d 5642 a4bd
000002a0: 0d13 3b3d ea32 813e 289b d43d d294 a3bc
000002b0: ecd8 8f3d cdb4 cb3d 6852 87bd 5d68 4cbd
000002c0: 1b7a ccbd bf56 c03d e336 0abe 5c92 313d
000002d0: a3c5 623d af4e 57bc b2d6 69bd 7b6a 85bd
000002e0: 0712 67bd e96f 9bbd f823 133e ee58 b5bd
000002f0: 128a 5bbd febf adbd 2e65 10be 21cc febd
00000300: 5711 66bd 3518 5ebd ac1d 77bd 0808 d5bd
00000310: f132 923d 89da c23d d4d8 23bd 842f 6ebe
00000320: acbd 49bd 7094 44bd d983 9cbd 7992 3bbd
00000330: 872b d43d 205c aebd 1553 c9bd 9e78 92bd
00000340: 11d2 2e3d acf4 d63d 2eec aebd b030 9abd
00000350: 89b3 a73d 4859 d63d 25e9 79bd 218b c53d
00000360: 780f 44bd eaad aebd 04c9 fdbc cf01 113e
00000370: 4044 973d 6c05 1c3d d637 813d e8de 4b3d
00000380: b41d debd 2d3b 663d fd13 bebd 0f82 a2bd
00000390: 4736 8abd ad8a 8dbd f3d3 10bd 807b 9e3e
000003a0: a522 cebd f68c 27bd 1d1e f4bc 6419 1ebe
000003b0: 6b3e 5bbd 78f3 c9bd 09cc 8b3d 2d00 f23d
000003c0: aff8 8a3e 8a2a 6fbd 33bd 7b3d 68dd 953d
000003d0: a305 5bbe d67d 2ebd f9de bf3d 630e b03d
000003e0: 6919 58bd 9dc6 233e 6754 f2bc 85f6 44be
000003f0: adde 09bd 27c7 b3bd e9c9 9cbd 0640 8fbc

fc3.bias f4 [5]
0.16276653 -0.41477516 -0.6055037 0.31813714 0.4737134
00000000: 45ac 263e 695d d4be 4a02 1bbf dfe2 a23e
00000010: 908a f23e
