examples/predict/epoch_10000/classifierFC_epoch_10000.pth (torch, 137055 bytes, 6 tensors)

fc1.weight f4 [128, 128]
0	0x3d1497bf	0.03627753
1	0xbdb9c034	-0.09069863
2	0xbddd5256	-0.1080672
3	0x3e0bb2f8	0.1364249
4	0xbdd8f404	-0.10593417
5	0xbdb64192	-0.08899225
6	0x3b3c8ca4	0.0028770352
7	0xbd0869e1	-0.0333041
8	0xbda934ea	-0.08262046
9	0x3deacaab	0.11464437
10	0xbe59ab6f	-0.21256803
11	0xbb037399	-0.0020057915
12	0xbb972d1b	-0.0046135313
13	0xbc1aa389	-0.009438404
14	0xbcfcf0f3	-0.030876612
15	0x3c21b29b	0.009869243
16	0xbe02a13f	-0.12756823
17	0x3dc12c32	0.09432258
18	0x3c9212dd	0.01783126
19	0x3cbd74ce	0.023126986
20	0x3d990a50	0.0747267
21	0x3dc82581	0.09772778
22	0xbd5d2865	-0.0539936
23	0xbe2503d1	-0.16114737
24	0xbcfedad1	-0.0311102
25	0xbd8fb7d5	-0.07017485
26	0x3c080ea4	0.008304272
27	0x3db349b5	0.08754293
28	0x3cfa0700	0.030520916
29	0x3bfe1de1	0.0077550267
30	0xbe405207	-0.18781291
31	0x3d14361c	0.036184415
32	0x3d3d7b10	0.04625994
33	0x3d76562b	0.06014077
34	0xbba762a3	-0.005108194
35	0xbe05b75c	-0.13058227
36	0x3e028ad5	0.12748273
37	0xbdfeb8a9	-0.12437565
38	0x3e2ec52a	0.170674
39	0xbe99b1ad	-0.30018368
40	0xbd346e52	-0.044050522
41	0x3d1c0b87	0.03809693
42	0x3e18a195	0.14905389
43	0xbd0866fa	-0.03330133
44	0x3df21c5d	0.11821816
45	0xbca7b579	-0.020472275
46	0x3deda636	0.11603968
47	0xbd21080b	-0.03931431
48	0x3e11fa23	0.14255576
49	0xbe364332	-0.1779907
50	0xbd8b00e9	-0.06787283
51	0x3d8ba813	0.06819167
52	0x3dd0ee00	0.10201645
53	0xbdbe5c5e	-0.092949614
54	0x3c35fa19	0.011106991
55	0x3c174877	0.009233586
56	0x3d773591	0.06035382
57	0xbda09d69	-0.078425236
58	0x3bddf987	0.0067741307
59	0xbe18a645	-0.14907177
60	0x3d5b44f6	0.053532563
61	0xbbf4b5a0	-0.0074679404
62	0x3d815b49	0.063162394
63	0xbca23e51	-0.019805105
64	0xbda08e85	-0.078396834
65	0x3de52830	0.11189306
66	0xbd0afa01	-0.03392983
67	0xbe0f095f	-0.13968419
68	0x3e2110b7	0.15729032
69	0x3c4fb717	0.012677929
70	0x3d9eef26	0.07760458
71	0x3df31773	0.11869707
72	0xbdaa245f	-0.083077185
73	0x3c870d18	0.016485736
74	0x3dd15991	0.102221616
75	0xbd883deb	-0.06652435
76	0xbd0cda11	-0.03438765
77	0xbe0f15e5	-0.13973196
78	0x3e472ca4	0.19450623
79	0xbc9a950c	-0.0188699
80	0xba0e2eaa	-0.00054238236
81	0xbd08d1c9	-0.03340319
82	0xbde39965	-0.11113242
83	0xbe2f12ca	-0.17097011
84	0xbd65644b	-0.05600385
85	0x3e8148b6	0.25250787
86	0x3de5a4ee	0.112130985
87	0xbd9eaaff	-0.07747459
88	0xbd29987e	-0.041405194
89	0xbd2ae9ed	-0.041726995
90	0x3dd63f0b	0.10461243
91	0xbd7df20a	-0.061998405
92	0x3dfc63e6	0.123237416
93	0xbd39bdb1	-0.04534692
94	0x3e1edb77	0.15513407
95	0x3dcbef5d	0.09957764
96	0xbe12236e	-0.14271328
97	0x3ce0d5b5	0.027445653
98	0xbcf9d55c	-0.030497245
99	0x3c9c9869	0.019115644
100	0x3e4a67e6	0.19766197
101	0x3c3a99cb	0.011389206
102	0x3d90c9e9	0.07069761
103	0xbd9e6875	-0.07734767
104	0xbd9a2357	-0.07526272
105	0x3e57f036	0.21087727
106	0x3d41fa99	0.04735813
107	0xbce0d2df	-0.027444301
108	0x3e6fc5e3	0.23415332
109	0x3c2470bd	0.0100366445
110	0xbcc90b4c	-0.02454152
111	0x3d98e7c1	0.074660785
112	0x3cfaa6ef	0.030597178
113	0xbcbb88c9	-0.022892373
114	0xbe2b7c00	-0.16746521
115	0xbcef2d7a	-0.02919649
116	0xbe4153df	-0.1887965
117	0xbd0503a2	-0.032474168
118	0x3df33e9d	0.11877177
119	0x3e1ca883	0.15298657
120	0xbda7e066	-0.081970975
121	0x3d26e2db	0.04074369
122	0xbdf2f02f	-0.11862218
123	0x3db933d5	0.09043089
124	0xbd787085	-0.060654182
125	0x3c805008	0.015663162
126	0x3c48bbfa	0.012251848
127	0xbc5aab6b	-0.013346533
128	0x3d997328	0.074926674
129	0xbbffa14e	-0.0078012114
130	0xbc7b5041	-0.015338958
131	0x3d48e29b	0.049044233
132	0xbdb54cef	-0.088525645
133	0x3c128c32	0.008944558
134	0x3cbc66f7	0.022998316
135	0xbda7163e	-0.08158539
136	0xbe03817d	-0.12842365
137	0x3d901bec	0.07036576
138	0xbe6a5d42	-0.22887138
139	0x3da8ca4b	0.08241709
140	0x3d529928	0.051415592
141	0x3dca96db	0.09892055
142	0xbe52db45	-0.20591457
143	0x3d0b8668	0.034063727
144	0xbd8e1de7	-0.06939297
145	0x3d91a83a	0.07112165
146	0xbd3c0ff2	-0.045913644
147	0x3d6b6840	0.057472467
148	0xbe0ccc96	-0.13749918
149	0x3de52c85	0.11190132
150	0xbd02183c	-0.031761393
151	0xbe072e3a	-0.13201228
152	0xbd26a4d7	-0.040684547
153	0xbdf86065	-0.12127761
154	0x3d360fab	0.044448536
155	0xbd84be23	-0.06481578
156	0x3d0598c1	0.03261638
157	0xbb314c8c	-0.0027053682
158	0xbe5d951c	-0.21638912
159	0xbd2ab3e6	-0.04167547
160	0x3ded03f3	0.11573019
161	0xbbf3766d	-0.007429889
162	0x3be43b52	0.0069650793
163	0xbdea55a6	-0.114421174
164	0x3d92d8b4	0.07170239
165	0xbdde2c64	-0.108483106
166	0xbd8ad873	-0.06779566
167	0xbe4c40ed	-0.19946642
168	0x3dd80357	0.10547512
169	0xbd9f2676	-0.07771008
170	0xbd5b530b	-0.053545993
171	0xbdd671b8	-0.10470909
172	0x3e8e22bf	0.27760884
173	0xbde6ab54	-0.11263147
174	0x3cc911dc	0.024544649
175	0x3d246ebd	0.04014467
176	0x3dc5ddf9	0.096614785
177	0xbe5d7a3c	-0.2162866
178	0xbdd3b9b8	-0.103381574
179	0xbdddb4f5	-0.108255304
180	0x3d403709	0.046927486
181	0xbe2ec76c	-0.17068261
182	0xbd0b43a2	-0.034000047
183	0x3da90c65	0.08254317
184	0x3dbaefac	0.09127745
185	0xbe2f626c	-0.17127389
186	0xbda32fce	-0.079681024
187	0xbd29d54b	-0.041463178
188	0x3e062491	0.13099886
189	0x3d4de881	0.05027056
190	0x3d3e0896	0.046394907
191	0x3e12f185	0.14349945
192	0x3de4db9b	0.11174699
193	0x3db58132	0.08862533
194	0xbe432abe	-0.19059274
195	0xbddac66a	-0.10682376
196	0xbd1e64f0	-0.03867048
197	0x3d15f7d7	0.03661331
198	0x3daf7de5	0.08568934
199	0xbce3e6bf	-0.02781999
200	0x3cff7d06	0.031187546
201	0xbd838254	-0.064213425
202	0x3e6f8abc	0.23392767
203	0xbd3169d2	-0.04331381
204	0x3d2b8ba0	0.041881204
205	0x3d070b09	0.03296951
206	0x3c2ba07f	0.010475277
207	0xbd990763	-0.07472112
208	0x3d539a46	0.0516608
209	0x3c001aee	0.007818921
210	0x3ddfda28	0.10930282
211	0xbe4c8799	-0.19973601
212	0x3cfbb7dc	0.03072732
213	0x3e0f9251	0.14020659
214	0xbd3dc8ea	-0.046334185
215	0x3d0473a9	0.032336865
216	0xbcdc2aa1	-0.026875796
217	0xbdb661ef	-0.08905398
218	0xbd039fd7	-0.032134857
219	0xbcb34446	-0.021883141
220	0xbdf66eb5	-0.120328344
221	0xbda7e26d	-0.08197484
222	0x3e0a916a	0.13532034
223	0xbb6f093f	-0.0036474017
224	0xbc678bcf	-0.014132454
225	0x3e0c6ce6	0.13713416
226	0x3d8082de	0.06274961
227	0xbd33f6ce	-0.043936543
228	0xbe0cc135	-0.13745578
229	0x3c25fad9	0.0101306075
230	0x3d81c942	0.06337215
231	0xbce598ac	-0.028026901
232	0xbd365457	-0.044514026
233	0x3e353b3b	0.17698376
234	0x3cd0dd68	0.0254962
235	0xbc97a7aa	-0.018512566
236	0x3e133fce	0.14379808
237	0x3c51585a	0.012777412
238	0x3c3bfccf	0.0114738485
239	0xbc9c0001	-0.01904297
240	0xbd0b2eed	-0.0339803
241	0x3cd7cc61	0.026342573
242	0xbde1c311	-0.11023534
243	0xbd9164a2	-0.07099272
244	0xbe447344	-0.19184595
245	0x3d9e9104	0.07742503
246	0xbda7faa3	-0.08202102
247	0x3db2b28b	0.087254606
248	0xbde715d7	-0.112834625
249	0xbd3deaa5	-0.046366353
250	0x3c93ee42	0.018057946
251	0xbac50e7d	-0.0015034225
252	0xbaf61689	-0.0018775027
253	0x3b7d2757	0.0038628185
254	0x3cd3121d	0.025765473
255	0xbca7a052	-0.020462189

fc1.bias f4 [128]
0	0x3d293b51	0.041316334
1	0x3b86144c	0.004091775
2	0xbd01e9e4	-0.031717196
3	0x3d6d48e3	0.05793084
4	0xbd7f3878	-0.062309712
5	0xbc6f633e	-0.0146110635
6	0xbd2b5eb1	-0.04183835
7	0xbd41a899	-0.047279928
8	0xbd862edb	-0.06551906
9	0xbdfbafa9	-0.12289364
10	0x3cc7f56d	0.02440902
11	0x3d4a7f41	0.049437765
12	0x3d6178d6	0.05504688
13	0xbc1f4383	-0.009720686
14	0x3da982ff	0.08276939
15	0xbcf06042	-0.029342774
16	0xbcfb84e2	-0.030703012
17	0xbdb6ddf1	-0.08929051
18	0x3c059a43	0.008154455
19	0xbc6cebc5	-0.014460509
20	0xbdbadcc6	-0.091241404
21	0xbd2ac790	-0.041694224
22	0xbb617f37	-0.0034408101
23	0xbd20c296	-0.03924807
24	0x3d067784	0.032828823
25	0xbdaaa82d	-0.08332858
26	0xbcb7fd85	-0.022459755
27	0xbc6ea39d	-0.014565376
28	0xbc397511	-0.011319415
29	0x3dcfde54	0.101498276
30	0xbd8a2f81	-0.06747342
31	0xbba9aa0d	-0.0051777423
32	0xbdaba727	-0.08381491
33	0xbdc56c1b	-0.0963976
34	0xbcc9e482	-0.024645094
35	0x3c66b371	0.014080868
36	0xbdd81cd7	-0.10552376
37	0xbca93697	-0.020655913
38	0xbd0c9139	-0.034318183
39	0x3d559f3b	0.052153807
40	0xbd978811	-0.073989995
41	0xbdf4b170	-0.11947906
42	0x3bc592c7	0.00602946
43	0xbc9a634b	-0.018846175
44	0x3d5e33c5	0.05424859
45	0x3dcee672	0.10102548
46	0x3c0657bb	0.0081996275
47	0xbc07b73d	-0.0082834335
48	0xbd81235f	-0.063055746
49	0xbd7eede7	-0.0622386
50	0xbd98fd5d	-0.074702
51	0x3d9565e4	0.07294825
52	0x3dd19182	0.102328315
53	0xbd664833	-0.0562212
54	0x3e1508e5	0.14554174
55	0xbc9e6513	-0.019335305
56	0xbdfe0205	-0.12402729
57	0x3da099c3	0.07841828
58	0x3d25b9ef	0.040460523
59	0xb8dc673f	-0.000105096486
60	0xbce6e8cd	-0.02818718
61	0x3c930181	0.017945053
62	0xbdba7fea	-0.09106429
63	0xbca1b462	-0.019739334
64	0xbce6e518	-0.028185412
65	0x3bfc2832	0.0076952213
66	0x3ddc71c2	0.10763885
67	0xbd5dfb33	-0.05419464
68	0x3ba38950	0.004990734
69	0xbdb3c210	-0.08777249
70	0xbd106677	-0.035253968
71	0x3ccc54b1	0.024942728
72	0x3d053975	0.0325255
73	0x3c86af4c	0.01644101
74	0xbdc33593	-0.09531703
75	0xbddaf6f0	-0.10691631
76	0x3dacf531	0.08445204
77	0x3d20e512	0.03928096
78	0xbcbc1361	-0.02295846
79	0xbd9a311e	-0.075288996
80	0xbdb0fa2f	-0.08641469
81	0xbdadf712	-0.084943905
82	0xbd16da0e	-0.036829047
83	0x3ded7e86	0.11596398
84	0x3cbf4ecf	0.023353009
85	0xbd1c3447	-0.038135793
86	0x3e21fe10	0.15819573
87	0xbc86dd57	-0.016462965
88	0x3d3bf7e4	0.045890704
89	0xbd0314f6	-0.03200241
90	0x3cc4864c	0.023989819
91	0x3cf932c9	0.030419724
92	0x3d6529d6	0.0559481
93	0x3dcde863	0.1005409
94	0xbd810011	-0.06298841
95	0x3c8e5d4b	0.01737847
96	0xbdea71fc	-0.11447522
97	0xbc5ece9e	-0.013599066
98	0x3cd72127	0.026260925
99	0x3df7ba05	0.12096027
100	0xbd95b558	-0.07309979
101	0xbda0c397	-0.07849806
102	0x3d3ca1a7	0.0460526
103	0xbd2c7d01	-0.0421114
104	0xbcc569f3	-0.024098372
105	0x3c52cbb9	0.012865954
106	0x3b8f715a	0.004377526
107	0xbd6eebb8	-0.058330268
108	0xbc609859	-0.0137081975
109	0x3d99dd53	0.07512917
110	0xbd837e84	-0.06420615
111	0xbdc9f04d	-0.09860287
112	0xbd86fc5d	-0.06591103
113	0xbda13498	-0.078713596
114	0x3dc1becb	0.09460219
115	0x3d18103e	0.037124865
116	0x3d94d680	0.07267475
117	0x3cb12dc0	0.02162826
118	0xbc04f7bf	-0.008115708
119	0xbcc9f596	-0.024653237
120	0xbae3e441	-0.001738675
121	0x3dc60879	0.09669585
122	0x3c9b26d2	0.01893941
123	0xbce92b04	-0.028462894
124	0x3d9adb00	0.07561302
125	0xbd825c06	-0.06365208
126	0xbafcc1c6	-0.0019283823
127	0x3d3d210e	0.0461741

fc2.weight f4 [128, 128]
0	0x3d00f111	0.0314799
1	0xbcb0bbc8	-0.021573916
2	0xbd1ed92d	-0.038781334
3	0x3d7eb842	0.06218744
4	0x3ce4c0a5	0.027923891
5	0xbd8bddf0	-0.068294406
6	0xbd9de39f	-0.07709431
7	0xbbb7f221	-0.005613581
8	0xbd6fe125	-0.058564324
9	0xbe07542e	-0.13215706
10	0x3d1acfb0	0.037795722
11	0x3e0098a2	0.12558225
12	0xbdcf5db3	-0.101252936
13	0x3c6401f9	0.013916486
14	0xbbc68057	-0.00605778
15	0x3d8e38a1	0.06944395
16	0xbc93a544	-0.01802314
17	0xbc3d0149	-0.011535951
18	0xbc3761fe	-0.011192797
19	0x3d8cf6ea	0.068830326
20	0x3d20663b	0.039159995
21	0xbd5f532f	-0.05452269
22	0x3d1b2091	0.037872855
23	0xbdb2e652	-0.08735336
24	0xbcbe3abb	-0.023221364
25	0x3d3b5734	0.04573746
26	0x3c7d7c75	0.015471567
27	0x3c2f186f	0.010686978
28	0xbd3a8a2d	-0.04554193
29	0x3daa1f6d	0.08306775
30	0xbc85bbbc	-0.01632487
31	0xbd992c0f	-0.07479107
32	0xbdb48e91	-0.08816255
33	0xbdf257f8	-0.11833185
34	0xbd841a86	-0.064503714
35	0xbe0d378b	-0.13790719
36	0xbd8415d7	-0.06449478
37	0xbcd3c1a5	-0.025849173
38	0xbdbfd730	-0.09367216
39	0x3d299276	0.04139944
40	0xbd69bc30	-0.057064235
41	0x3c4c3c30	0.012465522
42	0x3df3cfe1	0.11904884
43	0xbb2309e4	-0.0024877721
44	0xbd7ea460	-0.06216848
45	0x3ddc0237	0.1074261
46	0x3e021048	0.12701523
47	0x3c15ea0d	0.00915004
48	0x3d399ca4	0.0453154
49	0xbd031a60	-0.032007575
50	0xbe0ed285	-0.13947494
51	0xbd9c3d00	-0.07628822
52	0x3dd9e31e	0.10639022
53	0xbe1263bf	-0.14295863
54	0x3c0ae7e8	0.008478142
55	0x3ccd2a86	0.02504469
56	0xbc31826b	-0.010834317
57	0xbbabf236	-0.0052473797
58	0xbd2ee913	-0.042702746
59	0xbdfdab25	-0.12386159
60	0xbda73396	-0.08164136
61	0xbc4dc8f6	-0.01256012
62	0xbdfe0217	-0.12402742
63	0xbd84c458	-0.06482762
64	0x3c966c17	0.018362088
65	0x3d888816	0.06666581
66	0x3e36aef1	0.17840172
67	0x3d1d27d1	0.03836805
68	0x3d0923d8	0.03348145
69	0xbb2b1fc3	-0.002611146
70	0x3b89686b	0.004193356
71	0x3cdfdb0a	0.027326126
72	0x3c6dd7af	0.014516755
73	0xbd72ef1a	-0.059310056
74	0xbc2c3751	-0.010511235
75	0xbd2c370b	-0.04204468
76	0x3e2db361	0.16962959
77	0xbd498177	-0.049195733
78	0xbd0ae869	-0.03391305
79	0xbd6c072a	-0.05762402
80	0xbdb1e2ac	-0.08685812
81	0xbd839bf6	-0.064262316
82	0xbdd334a5	-0.103127755
83	0x3e3b6a1c	0.18302196
84	0x3cd59c09	0.02607538
85	0xbc1ee485	-0.009698038
86	0x3d2467ec	0.04013817
87	0xbcd35bcf	-0.025800614
88	0x3ce1739e	0.02752095
89	0x3baafbec	0.0052180197
90	0x3ca3e864	0.020008273
91	0xbb0c015d	-0.0021363117
92	0x3d59632d	0.053073097
93	0x3e0ff882	0.14059642
94	0xbdb25029	-0.087066956
95	0x3d595cc4	0.053066984
96	0xbe075009	-0.13214125
97	0xbe184993	-0.14871816
98	0xbccc8406	-0.024965297
99	0x3e0bb921	0.1364484
100	0xbdad92a6	-0.084752366
101	0xbc4da538	-0.012551598
102	0x3c48898a	0.012239823
103	0xbbd6c4ab	-0.0065542064
104	0x3da8cda2	0.08242346
105	0x3d07d776	0.033164464
106	0x3c31841e	0.010834722
107	0xbd89a60c	-0.06721124
108	0x3af719d5	0.0018852303
109	0x3da29a4f	0.07939588
110	0xbd778676	-0.060430966
111	0xbdad67bd	-0.08467052
112	0x3c0d42fe	0.008621929
113	0xbdc7aafe	-0.09749411
114	0x3e09985e	0.1343703
115	0x3d12e94a	0.035867013
116	0xbce7a3b6	-0.028276306
117	0xbd146d82	-0.036237247
118	0x3cbed615	0.023295442
119	0xb6f7b46f	-7.382179e-06
120	0x3c5d159d	0.013493923
121	0x3e135afa	0.14390174
122	0xbd7ec039	-0.062195037
123	0x3cd4346c	0.025903903
124	0x3d4f6f04	0.050642982
125	0xbc03e737	-0.008050731
126	0xbc02d85a	-0.007986153
127	0x3b8a69e3	0.0042240485
128	0xbd80214f	-0.06256353
129	0xbde17e4d	-0.11010418
130	0xbb80e688	-0.0039337315
131	0xbc24b58a	-0.010053048
132	0xbc520cff	-0.012820481
133	0xbce40b6d	-0.02783748
134	0xbd96fe7a	-0.07372756
135	0x3cab26f4	0.020892598
136	0xbd94d1de	-0.072665915
137	0xbc516b25	-0.012781893
138	0x3ca10eef	0.019660441
139	0x3c98181d	0.018566186
140	0x3e86be0a	0.26316863
141	0xbdaffe47	-0.085934214
142	0xbd518147	-0.05114868
143	0xbd5c64fa	-0.053807236
144	0x3be3a957	0.006947677
145	0xbb7da42f	-0.0038702597
146	0x398199e1	0.00024719446
147	0x3d878634	0.06617394
148	0xba61ac3d	-0.00086087344
149	0xbcb2c694	-0.021823205
150	0x3d4896b6	0.048971854
151	0x3e0d2460	0.13783407
152	0xbe4354a6	-0.1907526
153	0xbc854bb7	-0.016271455
154	0xbb04ac7c	-0.002024441
155	0x3d0b8b3f	0.034068342
156	0xbd2de879	-0.04245803
157	0xbd3150c8	-0.04328993
158	0xbcf9f956	-0.0305144
159	0x3dfd3a2b	0.1236461
160	0xbc0f589b	-0.0087491525
161	0x3d559bb8	0.052150458
162	0x3e4eaf2a	0.20184007
163	0x3cfbcc3b	0.030737033
164	0x3d818f18	0.06326121
165	0xbdbe5339	-0.09293217
166	0xbdf38a85	-0.11891655
167	0x3dc15a1c	0.09441015
168	0xbb0599f6	-0.0020385957
169	0xbd13868b	-0.036016982
170	0x3c59185e	0.0132504385
171	0xbda711ff	-0.08157729
172	0x3e05e6fd	0.13076396
173	0xbc42acb5	-0.011881997
174	0xbde4ff34	-0.11181489
175	0xbe027dca	-0.12743297
176	0xbd9804e8	-0.07422811
177	0x3daaefe2	0.08346535
178	0x3cefa830	0.029255003
179	0x3e549c22	0.20762685
180	0xbd591310	-0.052996695
181	0x3d383556	0.04497274
182	0x3d86bcd3	0.06578984
183	0x3e0d6082	0.13806346
184	0xbcb1f2ce	-0.021722224
185	0x3b6365fe	0.0034698243
186	0x3a99d512	0.0011736474
187	0xbe368631	-0.17824627
188	0xbd0152af	-0.031572994
189	0xbd6a1471	-0.0571484
190	0xbbd1a352	-0.006397643
191	0x3d391f8c	0.0451961
192	0x3df18797	0.1179344
193	0xbcddbbc1	-0.027067067
194	0x3d2d0371	0.04223961
195	0x3d0c9525	0.034321923
196	0x3bd22187	0.006412688
197	0xbd11f909	-0.03563789
198	0x3dfb6620	0.12275338
199	0xbd39c198	-0.04535064
200	0x3d6fe0b3	0.0585639
201	0xbdb84172	-0.08996858
202	0x3d04642b	0.03232209
203	0xbd20d57c	-0.039266095
204	0xbd741ee3	-0.05959977
205	0x3c963ad1	0.018338593
206	0xbcaeeb16	-0.021352332
207	0xbca47264	-0.020074077
208	0x3cb442a8	0.02200444
209	0x3cfc9703	0.030833727
210	0xbc8e2adf	-0.017354427
211	0x3c3e6c28	0.011622466
212	0x3e136313	0.14393263
213	0xbc650bc4	-0.013979856
214	0x3c4792ce	0.012180997
215	0x3ce8f446	0.028436791
216	0xbccf0142	-0.025269154
217	0xbd67a10a	-0.056550063
218	0xbd8451bc	-0.06460902
219	0xbdfb8566	-0.12281303
220	0x3d5ee918	0.054421514
221	0xbc50b006	-0.01273728
222	0x3d1254c3	0.035725366
223	0xbddce37d	-0.107855774
224	0x3d62af5f	0.05534303
225	0xbce23d7f	-0.027617214
226	0x3d235140	0.039872408
227	0x3bb81dfa	0.005618808
228	0x3cf719ae	0.030163612
229	0xbd72d1d6	-0.059282146
230	0x3c7fc5cf	0.015611126
231	0xbd2be4e0	-0.04196632
232	0x3cbb1b28	0.022840098
233	0xbd247970	-0.040154874
234	0x3d7ea184	0.062165752
235	0x3de9c220	0.114139795
236	0xbd39d0ae	-0.045365028
237	0x3c650731	0.013978765
238	0xbd878323	-0.06616809
239	0x3d035c21	0.032070283
240	0xbd9b09b6	-0.075702116
241	0x3d27e31e	0.04098808
242	0xbda5b0de	-0.08090375
243	0xbe1843ff	-0.14869688
244	0x3be420df	0.0069619264
245	0xbde7a8a2	-0.11311461
246	0xbdb0425f	-0.08606409
247	0xbe404618	-0.18776739
248	0x3d3187af	0.04334229
249	0x3af07643	0.0018345792
250	0x3d79a615	0.060949404
251	0x3d0045b8	0.03131649
252	0xbc9f7c33	-0.019468402
253	0x3c7731ad	0.015087527
254	0x3d56816c	0.05236952
255	0x3dd1e18d	0.102480985

fc2.bias f4 [128]
0	0x3e0bb177	0.13641916
1	0x3e1b834b	0.15186803
2	0xbea312fe	-0.31850427
3	0x3d4faed8	0.050703853
4	0xbe2a6bfd	-0.16642757
5	0xbdd526a4	-0.10407761
6	0x3e1199c8	0.14218819
7	0xbde2e747	-0.11079269
8	0x3ef1ab94	0.47201216
9	0x3db98486	0.0905848
10	0x3d7420ed	0.059601713
11	0x3e120afc	0.14262003
12	0x3e1d6480	0.15370369
13	0x3dae6d74	0.0851697
14	0x3d95f094	0.07321277
15	0xbd0c43d3	-0.03424437
16	0x3da61721	0.0810988
17	0x3dee23a7	0.11627894
18	0x3e2a37ce	0.1662285
19	0x3dabb777	0.083846025
20	0x3e473510	0.19453835
21	0x3e049c07	0.12950145
22	0x3dd555a4	0.10416725
23	0x3d4753bf	0.04866385
24	0xbda5f46f	-0.08103263
25	0xbd949ad2	-0.07256092
26	0x3de877ae	0.11350952
27	0x3e2e3fab	0.17016475
28	0x3df2f60c	0.11863336
29	0xbd9dd3f3	-0.07706442
30	0x3b563ea1	0.0032691138
31	0x3bd903af	0.0066227536
32	0xbddbc755	-0.10731379
33	0xbcf982e7	-0.030457927
34	0xbd3585c0	-0.044317007
35	0x3db870d3	0.090058945
36	0xbd7f8700	-0.062384605
37	0x3ed91228	0.42396665
38	0x3ea864a1	0.32889274
39	0xbdf6897c	-0.12037942
40	0xbd50ba95	-0.05095919
41	0x3e11b176	0.14227852
42	0x3d9c3143	0.076265834
43	0x3decece9	0.115686245
44	0xbd06bb63	-0.03289355
45	0xbca7b50d	-0.020472074
46	0x3e0af958	0.1357168
47	0x3d8fdd8a	0.07024677
48	0x3d0e96f3	0.034811925
49	0xbb92153b	-0.0044580973
50	0xbdab45f6	-0.08362953
51	0xbd5ff446	-0.054676317
52	0xbe23c336	-0.15992436
53	0xbd92cb17	-0.071676426
54	0xbd812070	-0.06305015
55	0xbdacc362	-0.08435704
56	0xbcf9949f	-0.030466376
57	0x3e9dc5ae	0.3081488
58	0xbdf8d6bc	-0.12150332
59	0xbd954623	-0.07288768
60	0xbe0f2812	-0.1398013
61	0x3e46ecb8	0.19426239
62	0x3d0cf784	0.034415737
63	0x3c05329f	0.008129745
64	0x3d2d97cb	0.04238109
65	0x3cf63779	0.030055748
66	0xbe3c170e	-0.1836817
67	0x3ee55dd7	0.44798157
68	0x3eaa1035	0.3321549
69	0x3da889ab	0.08229383
70	0xbbf9ec40	-0.00762704
71	0xbd5fda0f	-0.054651316
72	0xbd8fa0ea	-0.07013114
73	0x3d03dc61	0.03219259
74	0x3e040b4a	0.12894931
75	0x3d580066	0.052734755
76	0xbd71d4e1	-0.059040908
77	0x3e2f66db	0.1712908
78	0xbd2bfe24	-0.041990414
79	0x3e8f8a28	0.28035092
80	0x3d644708	0.055731803
81	0x3dbda5f8	0.09260172
82	0xbd8ba540	-0.06818628
83	0xbe093664	-0.13399655
84	0x3d970da0	0.07375646
85	0xbd3a78df	-0.045525428
86	0x3dc4e1e0	0.09613395
87	0xbcd34dbe	-0.025793906
88	0x3d385117	0.04499921
89	0xbd8e2f71	-0.069426425
90	0x3e4bc7d0	0.19900441
91	0xbbfc89eb	-0.007706871
92	0xbc7da612	-0.015481489
93	0xbe24c4ab	-0.16090648
94	0xbcc3ea81	-0.023915531
95	0xbdcaaaa1	-0.09895826
96	0x3e1545b1	0.14577366
97	0xbda2d8c6	-0.079515025
98	0xbde66309	-0.11249358
99	0xbcd6b724	-0.026210375
100	0x3e1245bf	0.14284419
101	0xbdcfa7db	-0.10139438
102	0xbeb92630	-0.36161947
103	0xbd4bfe3e	-0.04980301
104	0x3d98220d	0.0742837
105	0x3e1d7117	0.15375172
106	0xbdaecbe9	-0.085349865
107	0x3e06e3d9	0.13172854
108	0xbdcdd1b1	-0.10049761
109	0x3eb746bb	0.3579615
110	0xbd4bec86	-0.049786113
111	0x3cb5cb24	0.022191592
112	0x3d58a99f	0.05289614
113	0xbe6e70b3	-0.23285179
114	0xbde02b2f	-0.109457366
115	0xbed27149	-0.41102055
116	0xbe270a09	-0.16312422
117	0xbe1e1d72	-0.1544092
118	0xbefb7f4d	-0.4912056
119	0x3e972e09	0.2952731
120	0xbde5405b	-0.111939155
121	0xbd438862	-0.047737487
122	0x3e42dc1f	0.19029282
123	0x3e198533	0.14992218
124	0xbd5c4c38	-0.053783625
125	0xbde80a3d	-0.11330078
126	0x3e271985	0.16318329
127	0xbe1521db	-0.14563696

fc3.weight f4 [5, 128]
0	0x3da6156b	0.08109554
1	0xbd74d1d4	-0.05977042
2	0xbd4d0c0a	-0.05006031
3	0x3d1dce5c	0.038526878
4	0xbc217468	-0.009854414
5	0xbdb20e11	-0.08694089
6	0xbdb7f0f1	-0.08981503
7	0xbdc67508	-0.09690291
8	0x3db3f591	0.087870724
9	0x3d2de0d7	0.042450752
10	0x3d5d4e3a	0.05402968
11	0x3d7896e3	0.06069077
12	0xbdd2a4ef	-0.10285365
13	0x3cbdb82b	0.023159107
14	0x3d2ee7c6	0.042701505
15	0xbc384282	-0.011246325
16	0x3daac364	0.08338049
17	0x3d5ec7d0	0.054389775
18	0x3d6a984c	0.057274148
19	0x3b627b75	0.003455845
20	0x3d997214	0.07492462
21	0x3cc21468	0.023691371
22	0xbd699329	-0.05702511
23	0x3db337f7	0.08750909
24	0xbd8dec0f	-0.0692979
25	0xbd9938cc	-0.07481536
26	0xbce63f3f	-0.02810633
27	0x3d887957	0.06663769
28	0xbdfb56c2	-0.12272407
29	0xbcb3241a	-0.0218678
30	0x3cfc1276	0.030770522
31	0x3d0d17f6	0.03444668
32	0xbd97f6b4	-0.07420102
33	0xbdabce2c	-0.083889335
34	0xbce9e908	-0.0285535
35	0xbd28c95f	-0.041207667
36	0xbd1635f9	-0.036672566
37	0x3d8bb239	0.06821103
38	0x3cf15cf5	0.02946327
39	0x3d836985	0.06416611
40	0xbd6b6734	-0.05747147
41	0x3dc487f1	0.09596241
42	0x3c1bc301	0.009506942
43	0xbd83e88c	-0.06440839
44	0xbd326c92	-0.043560572
45	0xbd2b3469	-0.04179803
46	0x3cd74564	0.026278205
47	0xbd507b19	-0.050898645
48	0x3da5a8ab	0.080888115
49	0xbd60de6d	-0.05489962
50	0xbd3ebdf3	-0.04656787
51	0x3cd0c8c2	0.025486354
52	0xba4c80cb	-0.0007801174
53	0x3d03eee8	0.03221026
54	0xbd9afffb	-0.07568356
55	0xbccbc547	-0.024874343
56	0x3dd248a8	0.10267764
57	0x3c5ac21d	0.013351944
58	0xbdb3bd15	-0.08776299
59	0xbd81b939	-0.063341565
60	0x3d1ec9d4	0.038766697
61	0x3cbf8481	0.023378612
62	0x3d683508	0.0566912
63	0x3cccba6e	0.02499124
64	0x3d203798	0.03911552
65	0xbc4136fd	-0.011792895
66	0xbe0017d6	-0.12509093
67	0x3d7cc765	0.061713595
68	0x3d400eae	0.046889
69	0x3c94e796	0.018176835
70	0x3d6201ba	0.055177428
71	0x3d8e259a	0.06940766
72	0xbbf9796c	-0.0076133516
73	0xbd154f03	-0.036452305
74	0x3d836dd9	0.06417436
75	0x3d85976c	0.06523022
76	0xbd41e516	-0.047337614
77	0x3ca4f0de	0.020134386
78	0xbceda774	-0.029010512
79	0x3d5abe72	0.05340428
80	0xbdb52172	-0.0884427
81	0xbd3b4c58	-0.045727104
82	0xbd2c5d5a	-0.042081214
83	0xbd98f8b0	-0.074693084
84	0xbc879492	-0.016550336
85	0x3d926eb8	0.07150024
86	0x3db81944	0.08989194
87	0x3d8f40fa	0.06994815
88	0x3d2ec6f5	0.04267021
89	0xbd266209	-0.040620837
90	0x3da35de8	0.079768956
91	0x3d423104	0.047410026
92	0xbd0f686e	-0.0350117
93	0xbda5f3fc	-0.08103177
94	0xbd1d881a	-0.038459875
95	0x3bcf7a10	0.0063316897
96	0x3db04753	0.08607354
97	0x3c3f6536	0.011681845
98	0x3c044633	0.008073377
99	0xbd5b61bb	-0.05356
100	0xbd212f30	-0.039351642
101	0xbd8d0632	-0.06885947
102	0xbcf0fdf5	-0.029417971
103	0x3d643bc2	0.055721052
104	0x3d5b24fe	0.053502075
105	0xbdaaae4c	-0.08334026
106	0xbd1781ff	-0.03698921
107	0xbdc2affc	-0.095062226
108	0x3cdf7318	0.02727656
109	0x3d7f3d86	0.062314533
110	0xbc93f495	-0.018060962
111	0x3d1abd00	0.0377779
112	0xbcedd0de	-0.02903026
113	0xbd48a287	-0.048983123
114	0xbdb2b7c8	-0.0872646
115	0xbc9a95fc	-0.018870346
116	0xbd9e3f4f	-0.07726919
117	0x3d5b482b	0.05353562
118	0xbda78632	-0.081798926
119	0x3cfa5a56	0.030560654
120	0xbdb23bb7	-0.08702796
121	0x3c8baa67	0.017049028
122	0xbd92c8db	-0.071672164
123	0xbd53467c	-0.05158089
124	0x3c30d333	0.010792541
125	0xbd88088a	-0.06642254
126	0xbd0c2ded	-0.034223486
127	0x3d8aee81	0.06783772
128	0xbda13ce6	-0.078729436
129	0x3d29529a	0.04133854
130	0x3e676ce4	0.22600132
131	0x3d8b68fc	0.068071336
132	0x3e03626d	0.12830515
133	0x3d693f8e	0.056945376
134	0x3926e082	0.0001591463
135	0x3d527260	0.051378608
136	0x3dc79644	0.09745458
137	0xbdc39e72	-0.095517054
138	0xbd5263b6	-0.051364623
139	0xbdb7d3a4	-0.08975914
140	0xbca3b494	-0.019983567
141	0xbdfe6eb8	-0.12423462
142	0x3d00db3a	0.03145907
143	0x3dd97ff4	0.10620108
144	0xbd9cefe0	-0.0766294
145	0xbd9bc35f	-0.076056235
146	0x3d8d9ff1	0.06915272
147	0xbe0a273e	-0.13491532
148	0xbcc976cc	-0.02459278
149	0x3dd7bdf6	0.10534279
150	0x3cf98dba	0.030463088
151	0xbd0f6f03	-0.03501798
152	0x3d0fd75b	0.03511749
153	0x3d27bc36	0.040950976
154	0x3d8a9f1c	0.06768629
155	0xbd884f88	-0.066557944
156	0xbd0965ae	-0.033544235
157	0x3dd473d0	0.10373652
158	0x3d6a7eee	0.057249956
159	0xbdd01b56	-0.10161464
160	0x3d8a76cf	0.06760942
161	0x3cbfaacf	0.023396878
162	0x3d8cd08f	0.06875717
163	0x3d3a549f	0.045490857
164	0x3dc80778	0.097670496
165	0x3d9030a7	0.0704053
166	0xbe7792fd	-0.24177165
167	0xbd26162b	-0.040548485
168	0x3d5f0829	0.05445114
169	0xbc9a917a	-0.018868197
170	0xbe06afdd	-0.13153024
171	0x3cf91899	0.030407237
172	0xbc1a72b4	-0.009426761
173	0x3d94c1d7	0.072635345
174	0xbddefe99	-0.108884044
175	0x3d05e928	0.03269306
176	0x3da324d3	0.07966008
177	0x3ce39d99	0.02778511
178	0x3d5ac210	0.05340773
179	0xbd6191d4	-0.055070713
180	0xbdca1c66	-0.09868698
181	0xbd971e1f	-0.07378792
182	0x3cdb2aa2	0.026753727
183	0x3dd598b9	0.1042952
184	0x3caa4c3c	0.020788305
185	0xbe836770	-0.25664854
186	0x3d3ff30d	0.04686265
187	0x3d486cbb	0.04893182
188	0xbd92890b	-0.07155045
189	0x3d3237df	0.043510314
190	0xbd586a7a	-0.05283592
191	0xbe0b3da6	-0.13597736
192	0xbd84ee39	-0.0649075
193	0xbcdbae6e	-0.026816573
194	0x3cce37a2	0.025173012
195	0x3db03270	0.0860337
196	0xbe4f51d7	-0.20246063
197	0xbe1d4815	-0.15359528
198	0x3d58f121	0.052964333
199	0xbcddbbf8	-0.02706717
200	0x3daa8bb9	0.08327431
201	0x3d64fe6c	0.055906698
202	0x3dc83500	0.09775734
203	0x3d83422f	0.06409108
204	0x3d87e479	0.066353746
205	0xbdd99368	-0.10623819
206	0x3c0539ea	0.008131484
207	0xbe38d426	-0.18049678
208	0xbb865c6f	-0.0041003744
209	0x3d2168f0	0.039406717
210	0x3d5c8bc5	0.053844232
211	0x3dc02825	0.09382657
212	0x3d2acc47	0.04169872
213	0x3b953708	0.0045536794
214	0xbd59cfe2	-0.053176768
215	0xbcd6bea3	-0.02621395
216	0xbd8ab3fd	-0.06772611
217	0xbda98954	-0.082781464
218	0x3dd64b50	0.104635835
219	0xbd51657a	-0.051122166
220	0x3de4abae	0.11165558
221	0x3d871cdc	0.06597301
222	0x3d4d1428	0.05006805
223	0xbdb7e8d8	-0.08979958
224	0xbd692fcc	-0.05693035
225	0xbd78d23f	-0.06074738
226	0xbda04848	-0.078262866
227	0xbd2d11b7	-0.042253222
228	0x3d4053e0	0.04695499
229	0x3d0e5e30	0.034757793
230	0x3e796c37	0.24357687
231	0xbc840f72	-0.016120646
232	0xbd8681d9	-0.06567735
233	0x3b9f3335	0.0048583993
234	0x3dcccb9d	0.09999774
235	0xbcfb0c60	-0.03064555
236	0xbd8ff0e4	-0.07028368
237	0xbe6161d3	-0.22009973
238	0x3db58387	0.088629775
239	0xbdab36d0	-0.08360064
240	0x3d6e3d1a	0.05816374
241	0x3e3d404e	0.18481562
242	0x3d3372f6	0.043810807
243	0xbd6982d5	-0.057009537
244	0x3db28c75	0.08718196
245	0xbd1ee02d	-0.03878801
246	0xbdaf0653	-0.08546128
247	0xbe29e36c	-0.16590661
248	0x3d7f34c6	0.062306188
249	0xbda9019f	-0.08252262
250	0x3c13c8d4	0.009020049
251	0x3d216e5b	0.039411884
252	0xbda7a7da	-0.08186312
253	0x3d95ba00	0.07310867
254	0x3d96f3ed	0.07370744
255	0xbcac4653	-0.021029627

fc3.bias f4 [5]
0	0x3e0d2f80	0.13787651
1	0xbedd2675	-0.43193403
2	0xbf34d071	-0.70630556
3	0x3ecc2f7c	0.39879978
4	0x3ed0d2b8	0.40785766
