examples/predict/classifierFC_epoch_10000.pth (torch, 137055 bytes, 6 tensors)

fc1.weight f4 [128, 128]
000000 ff cd ec bc 89 09 b0 bc e4 6b d0 3a 3a a5 bb bc
       -0.02890682 -0.021488922 0.0015901295 -0.022905935
000010 b0 5c 66 bb da aa 8c bd 54 d1 02 bd 25 61 42 3d
       -0.003515046 -0.06868525 -0.031937912 0.047455925
000020 25 2a 27 bc 50 81 76 bd 24 fd 7c 3c 57 c3 a1 3d
       -0.010202919 -0.060181916 0.015441213 0.07898586
000030 fe e4 02 3d 69 fd f3 3c 66 e5 83 bd 27 07 51 bd
       0.031956665 0.029783921 -0.06440239 -0.05103221
000040 59 3d 07 3d 0f 52 d3 bc 6b 10 0d 3d 6f 6c 6a 3d
       0.03301749 -0.025795965 0.034439486 0.057232317
000050 4c 42 ca bc ff 0f 3e ba 73 b3 ae bd 71 84 ab bd
       -0.024689816 -0.00072503084 -0.08530321 -0.083748706
000060 82 82 5f 3d 9f 7c 33 bd de f5 59 bc f7 8c 92 3d
       0.05456782 -0.04382002 -0.013303248 0.07155793
000070 0e d8 82 3c e6 e8 6d bd ef c5 8a 3c ae c4 45 3d
       0.015972164 -0.058083437 0.016940085 0.04828327
000080 9a 50 bc bc 1e a1 f8 3b 93 71 39 3d 13 cf 4c bc
       -0.022987653 0.007587566 0.04527433 -0.012500542
000090 01 e8 31 3d fd 04 8b bd 6f 06 a6 bc 15 ae 20 bd
       0.043434147 -0.06788061 -0.02026674 -0.039228518
0000a0 b4 36 11 bd c6 eb af bd 9f fe 8f bc 28 61 bf 3c
       -0.03545256 -0.08589892 -0.017577467 0.023361757
0000b0 25 d2 69 3d fc d1 af 3c 06 51 38 bd 91 a6 91 3d
       0.057085175 0.021462433 -0.044999145 0.07111848
0000c0 5a ef 12 3d 15 2a bf 3b b4 fc 9d bd 90 69 36 3d
       0.035872795 0.005833874 -0.07714215 0.044534266
0000d0 17 03 c0 3d 0d 20 a6 bc 1c c6 a4 3d e7 9e a9 bd
       0.09375589 -0.020278955 0.08045599 -0.08282261
0000e0 8e 15 fe 3c 64 71 29 bd dc 3a df bc 66 8d dc bd
       0.031016137 -0.041367903 -0.027249746 -0.10769157
0000f0 f3 1f 9a 3d ce e8 45 bd 9f c2 f0 3c b5 d9 dc bc
       0.07525625 -0.048317723 0.029389678 -0.02695928
000100 56 b6 3f 3b b6 a0 73 3c 58 75 e7 3c 2f 5e f5 3c
       0.0029252968 0.014869859 0.028254196 0.029952137
000110 7a ae e3 3b f0 7a ae 3c cf d6 1e bd cd 49 b3 3d
       0.0069482895 0.021298856 -0.038779076 0.08754311
000120 07 0d 83 3d 66 02 d0 39 87 bd 47 bc 99 d4 1d b9
       0.06398969 0.00039674639 -0.012191183 -0.00015051886
000130 72 0e 98 3d 00 13 72 bd c2 48 c1 bd 4e cc 77 bc
       0.0742463 -0.05910015 -0.094377056 -0.015124394
000140 8d b6 7c 3c 0f c3 bd 3d bb 56 91 3c 2e 3d 1d 3d
       0.015424383 0.0926572 0.017741552 0.038388424
000150 39 b1 fb 3c 6a 2d 2a 39 e9 7f 8a bb 6e 77 29 bb
       0.030724155 0.00016229381 -0.004226674 -0.002585854
000160 a0 41 d2 bd c5 26 2d 3d c7 1b 74 3d 50 62 cf 3b
       -0.10266423 0.0422733 0.059596803 0.0063288584
000170 89 7d 3d bd e4 69 ba bd 09 9c 4d 3d 6b 6e c1 3d
       -0.046262298 -0.09102228 0.050197635 0.09444889
000180 9a c7 24 bd 1a 67 72 bd 13 04 8e 3d ed d4 21 3d
       -0.040229417 -0.059180357 0.06934371 0.039509702
000190 c7 90 2d bd 3f 25 23 bd b9 97 cc bb 2d af dd 3a
       -0.0423744 -0.039830443 -0.0062436727 0.0016913168
0001a0 b9 dc 51 bc 1b 6b 56 bc 4e 08 21 3d ae ce 88 bc
       -0.012808972 -0.013087059 0.03931456 -0.016700115
0001b0 07 77 31 3d d6 e7 35 bc c6 3e db bc e0 44 5e bc
       0.043326404 -0.011102637 -0.026763331 -0.013566226
0001c0 d9 d7 0c 3d 76 02 44 3d 8f 14 a7 3d d4 eb c6 b9
       0.034385536 0.04785391 0.08158218 -0.0003794121
0001d0 a1 9b 67 3c f5 70 5b 3b f8 83 21 3c 6b a9 80 bd
       0.014136226 0.0033484076 0.009858124 -0.06282314
0001e0 96 5a 14 bd 43 54 84 3d 7e 2e c7 3d 79 0c 18 bb
       -0.036219202 0.06461384 0.097256646 -0.0023200794
0001f0 3f 0f de bc 8c a5 8a 3b 5c 71 c6 bc 58 a3 ca 3b
       -0.02710688 0.0042311605 -0.024223976 0.006184023
000200 32 1f 1a bc 81 76 b5 bd 93 f6 81 bd 84 23 38 3d
       -0.009406852 -0.088604935 -0.063458584 0.044955745
000210 87 c8 80 3b f0 77 a6 3d 67 68 9b bc 0b a5 b0 bb
       0.0039301547 0.08128345 -0.018970681 -0.0053907684
000220 48 b3 0d 3c 64 c5 66 3a 87 5e 38 bd 3c c0 0d 3e
       0.008648701 0.0008803217 -0.045012023 0.13842863
000230 83 14 00 3d 16 dd 55 3c d6 7e 55 3d 75 0c 2e bd
       0.03126956 0.013053199 0.052122913 -0.04249235
000240 a6 f5 40 bc 43 54 c1 bb 1c 4b 1d bd 0f 45 d2 3c
       -0.011777317 -0.0058999374 -0.038401708 0.025667695
000250 dd de 19 3d 3c 53 96 bd fc d6 53 3d 3e ee 32 3d
       0.037566055 -0.073400944 0.051718697 0.043684237
000260 b4 71 76 bd 20 63 2f 3d 0c 2f f9 bc b5 cd 3a 3d
       -0.06016703 0.042819142 -0.030417942 0.045606334
000270 7b b8 e7 3b 36 47 8b 3d 50 c2 54 bc cc 67 8d bd
       0.0070715523 0.06800692 -0.012985781 -0.06904563
000280 67 c4 82 3b 9c b6 40 3d 5a 59 9b bd 6d fe 58 3d
       0.003990698 0.04704915 -0.07585402 0.052977014
000290 fd 61 94 bd 85 97 1c 3c c1 85 5c 3c 2b 18 01 3c
       -0.07245252 0.009557609 0.013459624 0.007879297
0002a0 1e 7c 06 bd ff ff 3c 3d bb 83 6a 3c 87 22 7f bd
       -0.03283321 0.046142574 0.014313634 -0.062288787
0002b0 2a d7 1a bd 55 e3 81 3d e7 56 7c 3d 57 35 8c 3c
       -0.037802853 0.06342188 0.061606314 0.017115278
0002c0 3b 03 be bd c8 7f 48 bd f8 33 85 3d 96 6c 01 3d
       -0.0927796 -0.048949987 0.06504053 0.031597696
0002d0 ec 01 ca 3c 8d 67 3c bd b8 c4 5e 3c bc 68 26 3c
       0.02465912 -0.04599719 0.013596706 0.010156807
0002e0 a7 e2 c1 3c b7 ae 10 3c 5c 4b 4e 3d ef 90 31 3c
       0.023667647 0.008830718 0.050364837 0.0108377775
0002f0 2e 52 39 3d a7 5a 9e 3d df a0 a2 bd 01 05 18 3d
       0.04524439 0.07732134 -0.0794084 0.037114147
000300 79 c6 cb 3c bf bb 80 3c 0a 05 49 3d d5 67 47 3c
       0.024874913 0.015714524 0.04907707 0.012170752
000310 69 16 8b 3d 36 7a c5 3d d4 6d b1 bd f5 00 cf bd
       0.06791384 0.096424505 -0.08663526 -0.101076044
000320 d1 d5 dc 3b 79 ac 0f 3d bf ed 68 3d 3a fd ca bd
       0.006739356 0.035076592 0.056867357 -0.099115804
000330 bb 16 75 3c cf c5 98 bc d8 70 fc 3a 35 8e d3 3d
       0.014959033 -0.01864901 0.0019259704 0.10329858
000340 66 bc 4d 3b 2b 26 04 3d 80 33 68 bd 22 32 29 3c
       0.0031392812 0.032262962 -0.05668974 0.010326894
000350 28 bf 91 bb e4 da 7a 3d 19 1b 9b bd 35 d5 07 bd
       -0.0044478364 0.061243907 -0.07573528 -0.033162314
000360 c2 b2 48 bd d3 cf 95 bd bb ea 9e 3c 0c 7d 80 bd
       -0.0489986 -0.0731503 0.019399038 -0.06273851
000370 63 25 41 bd 8c f0 90 bd 7c a7 04 3c 59 b3 62 3d
       -0.047154795 -0.07077131 0.008096572 0.05534682
000380 da 57 2c 3c 6f 48 42 bd e1 32 cb 3c 2b 9e 72 bd
       0.010518992 -0.04743236 0.024804534 -0.059232872
000390 ab 8f 06 bd fc 9e 02 3d 2b 79 0c bd 8b 39 cb bc
       -0.032851856 0.0318899 -0.034295242 -0.024807712
0003a0 e4 9a 4f bb c3 c4 ac bd 66 e1 d6 bc 67 7e 29 3c
       -0.0031678015 -0.08435967 -0.026230525 0.010345078
0003b0 de 85 27 3c e4 c6 a0 3d 38 00 ff 3a 30 5c a9 bd
       0.0102247875 0.078504354 0.0019455021 -0.082695365
0003c0 9b c7 d7 3d 49 79 36 3b 2b b7 8b bd 3b ec f0 bc
       0.105361186 0.0027843288 -0.06822046 -0.029409518
0003d0 f2 d9 28 3c 32 0e 4c 3d 01 fa 0d 3e aa 6d 53 3c
       0.010305868 0.049818225 0.138649 0.012904564
0003e0 3d 5e 80 bc 84 2a 0b bd 7f f7 e2 bb da eb bd bc
       -0.015669936 -0.033976093 -0.0069264765 -0.023183752
0003f0 b9 5e d5 bc 73 0d 0f bd c8 c1 42 bd aa 94 1e 3d
       -0.026046144 -0.034924936 -0.047548085 0.038715996

fc1.bias f4 [128]
000000 85 d9 60 3d ae 3c b4 bd 62 53 06 bc 1e ac c6 bd
       0.054894943 -0.08800636 -0.008198591 -0.097007975
000010 cf ec 0b be 54 98 4a 3d ec 2f 9b 3c a0 28 01 3c
       -0.13664554 0.049461678 0.01894375 0.007883221
000020 da 85 b8 3a 72 13 9b 3c 8b 80 fe bd 1a 9f 8e 3d
       0.0014077977 0.01893017 -0.124268614 0.0696394
000030 0d eb 92 bd 0a ea 10 bd 6e 41 be bd e6 88 04 3c
       -0.07173739 -0.035379447 -0.092898235 0.00808928
000040 3e cb 78 3c b0 d0 0c 3d 0e 12 e0 3d 66 98 cd 3d
       0.015185175 0.034378707 0.10940944 0.10038833
000050 ff 52 c7 3c f6 18 14 3d 05 86 00 bd 1c b7 84 bd
       0.024331568 0.036156617 -0.03137781 -0.06480238
000060 ec 02 e8 3d 5c 1a 87 bc af c4 c0 bb 10 74 78 bd
       0.11328682 -0.016492061 -0.0058828215 -0.06065756
000070 2b 31 d6 3c e5 43 99 3c 90 98 81 3d cf 32 44 3d
       0.026146492 0.018709132 0.06327927 0.047900017
000080 ec 3c 53 bc 32 43 f2 b9 f0 83 57 3d 16 9d a4 3b
       -0.012892943 -0.000462079 0.05261606 0.005023609
000090 55 b9 b0 3d fc b6 fe 3c c8 ee 8b 3d c7 62 41 bd
       0.08629099 0.031093113 0.06832653 -0.047213342
0000a0 38 e7 8c 3c aa aa b1 bb f4 2e 65 bd 20 58 19 be
       0.017200097 -0.005421956 -0.05595298 -0.14975023
0000b0 87 33 ee bd 76 08 8e bd 1e 2f 88 3d 2b 56 a3 bd
       -0.11630922 -0.069352075 0.06649612 -0.079754196
0000c0 98 a6 75 bc d3 80 8e 3d de 22 7d bd 5e b7 ad 3c
       -0.014993332 0.06958165 -0.06180083 0.0212056
0000d0 a2 39 b9 bd e9 6b 83 3c f4 9d 1f 3d 67 87 40 bd
       -0.09044196 0.016042667 0.038968995 -0.04700413
0000e0 b5 e1 80 bd a1 07 3b 3d 1a 74 75 3d 22 6a 94 3d
       -0.0629305 0.045661572 0.059925176 0.07246806
0000f0 ae 75 ee 3d ec 0f a0 3d f2 de ae 3c 15 8a 9b 3c
       0.11643539 0.07815537 0.021346543 0.018986741
000100 05 f1 87 3d ca 1e 61 bd dd 73 da 3d a1 5f 81 bd
       0.06637768 -0.054961003 0.106666304 -0.06317068
000110 52 4c 40 bc 80 04 5f bc d3 e9 29 3c 74 78 b3 3d
       -0.011736946 -0.013611913 0.010370689 0.08763209
000120 c0 8a 7f 3c a8 67 43 bc e1 23 00 bd 63 c2 61 bd
       0.015597045 -0.011926569 -0.031284217 -0.055117022
000130 e3 34 eb 3c 7e 15 51 3b 01 9d 19 3d 99 6c 2f bd
       0.028711742 0.003190368 0.037503246 -0.042828176
000140 74 bd a0 bd 8a e5 fc bc a2 d5 96 bb 20 72 93 3d
       -0.07848635 -0.030871172 -0.0046031037 0.07199502
000150 48 ad 9b bc b2 54 8a bd 62 78 06 3e 30 57 24 bd
       -0.019003525 -0.067544356 0.1313186 -0.04012221
000160 a7 f9 ee 3d 82 ac 26 bd 63 9e e4 bd 17 c0 17 3a
       0.11668711 -0.04069186 -0.11163022 0.00057888165
000170 f1 69 13 3c a9 d7 4b bc 1c 16 23 3d 8f fc 92 3c
       0.008997426 -0.012441554 0.039816007 0.017942695
000180 3b 55 e3 3c 08 c6 c4 3b b5 d4 fc 3c 9f 0c 2a 3b
       0.027750602 0.0060050525 0.030863145 0.0025947464
000190 8a 51 12 bd 6c a8 89 3d 5f 59 bd 3d 81 28 f7 3c
       -0.035722293 0.06721577 0.09245562 0.030170681
0001a0 78 7a b5 3d eb 33 bb 3c f8 e6 38 3b 65 1c b4 3d
       0.0886125 0.022851905 0.002821384 0.08794478
0001b0 b5 7c 22 bd ab c0 8c bd 13 9c ca bd 36 d8 24 bd
       -0.03966971 -0.06872686 -0.0989305 -0.040245257
0001c0 4e 3e 4b 3d 93 28 9f bd d1 86 59 bd 1d cc 96 3d
       0.049619965 -0.07771411 -0.053107087 0.0736315
0001d0 88 0c a9 bd 38 6e 60 bd 42 94 a9 3a af d2 c3 3d
       -0.08254343 -0.054792613 0.0012937861 0.09561669
0001e0 7d fe d6 3c 0f e0 02 3d 34 47 44 3c 5c a3 5d 3c
       0.026244396 0.03195196 0.011979867 0.013527717
0001f0 86 d3 90 3d 4c 60 95 3c ea db c7 bd c7 69 34 3d
       0.07071595 0.018234394 -0.09758742 0.04404619

fc2.weight f4 [128, 128]
000000 e8 09 8f 3d 86 c3 02 be fb 2b f8 bc 1e 69 42 bd
       0.06984311 -0.12769899 -0.030294409 -0.04746353
000010 b2 82 8c bd 28 8f a2 3d 12 f3 6b 3d e0 76 1a 3d
       -0.06860866 0.07937461 0.057604857 0.037711024
000020 93 94 32 3d 94 54 8b 3d 1b 90 70 3d ed a5 9d 3d
       0.043598723 0.06803241 0.05873118 0.076976635
000030 2c d2 81 3c d0 e7 cb bd d7 2a c2 bb b9 28 15 3d
       0.015847288 -0.09956324 -0.005925517 0.03641579
000040 73 c8 f9 bc e4 61 a4 3c ab 80 33 bd 8a de 7a 3d
       -0.03049109 0.02006621 -0.04382388 0.061247386
000050 e0 38 b6 3c 00 10 ec 3b eb f3 ef 3c 96 5f 63 bd
       0.022243917 0.007204056 0.029291114 -0.05551108
000060 12 7c 86 3d 04 b2 ab 3c be 0c a2 3c c0 da e8 bd
       0.06566633 0.020958908 0.019781467 -0.11369848
000070 14 f2 0b bd 42 49 3d 3d cd 51 fc 3c eb 3a 20 3b
       -0.03416641 0.046212442 0.030800724 0.002444918
000080 42 93 45 bc b9 38 f9 3c db 1c d6 bb c3 e6 9b bd
       -0.012059035 0.030422555 -0.0065342016 -0.07612374
000090 c5 99 0e 3d 82 8d 2c 3d 0e 0a 93 3d af bf 3e 3b
       0.034814615 0.04212714 0.07179652 0.0029105952
0000a0 7f 74 15 3d 2f aa f1 3c 93 2c 07 3d 2c ba b3 bd
       0.036488052 0.029500095 0.033001494 -0.08775744
0000b0 61 84 a2 bb 7e 83 ef b8 b1 41 be bd ab 03 c3 bd
       -0.0049596285 -0.000114209004 -0.092898734 -0.09522184
0000c0 e8 57 82 bd c1 7e 8d 3d 45 b7 d4 bd f4 08 05 bb
       -0.06364423 0.06908942 -0.103865184 -0.0020299526
0000d0 c5 12 1f 3b 3e 00 03 bd 9b f9 52 bd f9 6c 7b bd
       0.0024272662 -0.031982653 -0.051507574 -0.06138322
0000e0 de 50 7f bd 96 57 56 3d a4 37 85 3c e1 ff d9 3c
       -0.06233298 0.052329622 0.016261883 0.02661127
0000f0 50 88 95 bc e4 42 23 3d 35 5b a1 3d a5 fb 35 bd
       -0.018253475 0.039858714 0.078787245 -0.04442944
000100 da d8 1d 3d dc 0b 5a 3d 4d dd 90 3d 48 1b 0a bd
       0.038536884 0.053233966 0.0707346 -0.033717424
000110 b1 5a bc bd dd 4f 84 bc d4 92 97 bc 68 d2 e3 bc
       -0.091969855 -0.016151363 -0.01850263 -0.02781029
000120 53 42 0d 3d d8 f4 dc 3b 91 37 92 bd a2 a3 c2 bd
       0.03448708 0.006743055 -0.07139505 -0.09503867
000130 46 6a 18 bb 18 94 46 3d b5 96 55 bd f4 44 e3 bd
       -0.0023256703 0.048481077 -0.05214568 -0.11097136
000140 a7 86 29 3d 9f 93 5a 3d 02 19 4f 3d 22 a2 ad 3c
       0.04138818 0.05336344 0.05056096 0.021195475
000150 d1 49 1e bc 51 fc 2f 3d a5 84 02 3d 4e 91 88 bd
       -0.009661154 0.042965237 0.03186478 -0.0666834
000160 4a f7 08 3e 57 36 d1 bc 41 cb 2e bd 10 c5 06 3d
       0.13375583 -0.025538607 -0.042674307 0.032902777
000170 55 b2 08 bd 38 7c e4 3c 41 5f 91 3d d6 ec f3 3b
       -0.033373196 0.027891263 0.07098246 0.0074440045
000180 46 da c1 3d b6 d9 6e bc 4d 63 32 bd 15 66 e7 3c
       0.094654605 -0.0145782735 -0.04355173 0.028246919
000190 c2 a0 24 bd 6d cf 5b 3d ba f2 a1 bd 19 30 bc bc
       -0.040192373 0.053664614 -0.079076245 -0.022972153
0001a0 d1 1c 0c 3d 6b ab 92 3d 16 06 9b bc 23 e3 4f 3d
       0.03420717 0.07161602 -0.0189238 0.050753724
0001b0 2a 43 92 bd 1b fb 21 3d 13 b8 9f bc b5 91 92 bd
       -0.07141717 0.039546113 -0.019496953 -0.07156698
0001c0 ad eb ff 3d 39 31 c6 bc d0 f2 d4 3c 81 35 90 3d
       0.124961235 -0.024193393 0.025994688 0.07041455
0001d0 79 10 8a 3d b3 17 e9 bc 6e 80 bb 3c 46 1c b4 3d
       0.06741423 -0.028453683 0.022888388 0.08794455
0001e0 e3 85 5d 3d 38 7b c6 bc 6d 4c 00 3c f7 d6 5b bc
       0.054082762 -0.024228677 0.007830721 -0.013417951
0001f0 93 e1 16 3d b9 b5 92 3c b8 9c b0 bd de e5 f1 bc
       0.036836218 0.017908918 -0.08623642 -0.029528555
000200 2b 79 85 bc 1e c4 5a bd 07 fd f2 3d 47 cc 94 bd
       -0.016293129 -0.05340969 0.118646674 -0.07265525
000210 53 3f fd 3c 8e d1 3c 3d 6c 5d 40 bd 56 46 5a bd
       0.030913984 0.046098284 -0.046964094 -0.053289734
000220 9a e7 d7 bd cf 45 93 3d e4 f4 49 bc 72 6b 06 3c
       -0.10542221 0.07191049 -0.012326453 0.008204328
000230 b1 4b 91 bc ef f6 89 3c d1 94 be 3b 93 05 8a bd
       -0.017736288 0.01684138 0.00581608 -0.067393444
000240 16 f0 f2 3b 4e ce cf bc 24 85 82 3d 56 ee e5 bc
       0.0074138744 -0.025366928 0.06373051 -0.028067749
000250 b0 be 32 bd b6 ae 7b 3c 96 c4 c7 bb ea 88 00 bc
       -0.043638885 0.015361479 -0.006096433 -0.007845143
000260 df 48 92 3c 3c 7e 62 bd 7c 65 2d 3c e8 eb a7 3d
       0.017857013 -0.055296168 0.010583278 0.081992924
000270 d8 e1 7b 3d 63 e2 d0 bc eb 2b 94 3c 56 37 16 3d
       0.06149468 -0.025498575 0.018087348 0.036673866
000280 c4 12 2f 3a 2d 84 7a bd d0 56 af 3d 2a b1 a2 3b
       0.00066785165 -0.06116121 0.0856148 0.0049649673
000290 4f 88 9c 3c 07 96 00 3c a5 9f ae 3c d4 71 ed bd
       0.019107966 0.007848269 0.021316359 -0.115939766
0002a0 d7 5f 6b bd 31 62 87 3d 63 76 fa bc fd 70 3c 3b
       -0.057464447 0.066105254 -0.03057403 0.002875387
0002b0 b2 63 5b bd 7d cb 0b bb 22 22 50 3d 76 69 89 bc
       -0.053561874 -0.0021331005 0.0508138 -0.01677392
0002c0 3e e8 0c bc ae 1a e6 3c 20 97 39 3c ad 68 ad 3c
       -0.008600293 0.028088894 0.011327535 0.021168077
0002d0 c7 24 bf bd a1 db e2 3b 0c 27 a7 3c 9e d8 21 bd
       -0.093331866 0.0069231545 0.020404361 -0.039513223
0002e0 6c ed 03 bd f4 8d 1f 3d 44 78 f1 3c bf 5c e6 3d
       -0.032208845 0.038953736 0.029476292 0.11248159
0002f0 cc dd 96 3d 77 c3 22 3c 01 db 7c bd 0b 86 9a 3d
       0.07366523 0.009934298 -0.061732296 0.07545098
000300 d9 df 18 bc ac bb 02 3d c9 25 6c 3b 81 4a c8 bc
       -0.009330713 0.03191726 0.0036033264 -0.024449589
000310 bc ae 52 3d a1 75 f2 bc 70 79 ba 3d 4b a6 14 bd
       0.05143617 -0.029597105 0.091051936 -0.0362914
000320 90 b8 c0 3d 05 2d 1a bd b7 ac ae bd bb fd 2c bb
       0.094102025 -0.03764059 -0.085290365 -0.0026396352
000330 ac dc 9c 3b 5b 6f aa 3c 27 83 84 bd 3c 00 a8 bc
       0.0047870483 0.020805052 -0.06470328 -0.020507924
000340 1d 34 45 bc 70 3a a2 bc 4b 59 0b 3d d7 91 3e bd
       -0.012036351 -0.019803256 0.034020703 -0.046525802
000350 d9 3c c3 3d 1e 4b a4 3c 7f 82 6a bd 37 fa 9b 3d
       0.0953309 0.02005535 -0.057253357 0.07616084
000360 07 8a 15 3d 03 60 bc bd 8f c5 d8 bd e5 d0 f6 bd
       0.036508586 -0.09198 -0.10584556 -0.12051562
000370 f5 63 56 bd b4 93 91 3d 02 49 cb 3c 01 6b ce bc
       -0.05234142 0.0710825 0.024815086 -0.025197508
000380 2a 31 f8 3c 75 18 98 bd f5 87 f6 3b 50 d3 9d bd
       0.03029688 -0.0742654 0.0075235316 -0.0770632
000390 9f 7d 83 bd 3e 77 f1 3c 73 64 9b bc 49 82 cd bc
       -0.06420445 0.029475804 -0.018968796 -0.025086539
0003a0 54 2b e1 bb d1 7b 7f 3d c1 65 71 bd 1b c6 cc 3c
       -0.00687162 0.06237394 -0.05893493 0.024996808
0003b0 d9 7c 33 bd b9 04 a1 bd 2e a7 13 3c 86 7f b9 bb
       -0.043820236 -0.07862229 0.009012027 -0.005660954
0003c0 a9 1d 86 bd 62 9e 63 bd e3 62 56 b9 da 91 cd bc
       -0.06548626 -0.055570967 -0.00020445469 -0.025093962
0003d0 77 e5 47 bd 93 9a cd bb 13 5a 20 bd 28 6a 82 3c
       -0.04880282 -0.00627453 -0.0391484 0.01591976
0003e0 80 d4 7c bc b2 d0 16 3d 47 65 09 3e 00 08 a2 3c
       -0.015431523 0.03682012 0.1341754 0.019779205
0003f0 b1 3e a8 3d c8 f0 74 3d b4 71 2e bd ad 36 a4 3c
       0.082150824 0.05979994 -0.042588905 0.020045603

fc2.bias f4 [128]
000000 9e ef 8d 3e f4 6c 82 3c a3 9d a2 be 26 dd 95 bd
       0.27721876 0.015921094 -0.31760892 -0.07317571
000010 66 02 83 3d ea c6 9a be fd 38 1d be a3 88 2c bc
       0.06396942 -0.30229884 -0.1535377 -0.010530624
000020 33 f4 fd bd 01 4f 8c bc 84 25 a9 bd 47 4c 02 be
       -0.12400093 -0.017127516 -0.08259109 -0.1272441
000030 85 6f 7b bd b6 89 bf 3c 47 7f 8b bc 23 bf c2 bd
       -0.06138565 0.023381095 -0.017028464 -0.09509113
000040 80 45 86 3d 9b 5d d5 3c cf f0 ae be 95 51 3a be
       0.06556225 0.026045611 -0.34168097 -0.18195184
000050 b5 0f 6d bd ec 4e d4 bd ed 0f 4f 3e d0 b8 29 bd
       -0.057876308 -0.10366616 0.20220919 -0.041436017
000060 c9 0f 9a 3e c9 7e ab 3c 12 d3 89 be 83 e2 22 3e
       0.30090168 0.02093448 -0.26918846 0.1590672
000070 af cb f2 3d 3d ec 19 be e5 d0 6a be 16 d4 b4 3d
       0.11855256 -0.15031524 -0.2293125 0.08829515
000080 61 cb ec 3a 09 fd 55 be 31 44 b7 3e 0b f9 25 3d
       0.0018065983 -0.20897307 0.35794213 0.04052071
000090 9f e1 7b be 6a cd 66 3e 2e 02 20 3d e6 6a b1 be
       -0.24597786 0.22539297 0.03906458 -0.3465187
0000a0 35 e1 87 be c8 41 b3 3c f5 44 5a 3e e1 50 0a bd
       -0.26539007 0.021881953 0.21315368 -0.03376854
0000b0 a5 f7 76 3e 74 eb 98 bd 58 20 9d 3e c8 2d 82 3e
       0.24117906 -0.07466784 0.3068874 0.25425553
0000c0 73 21 32 bd b1 97 46 be 95 8b 88 be 38 4a 47 bd
       -0.04348893 -0.19393803 -0.26668993 -0.048654765
0000d0 2a d0 ae 3c ae 4e c5 3e 07 2b 2b 3e c2 6d 8b 3e
       0.021339495 0.3853659 0.16715632 0.27232176
0000e0 db a5 59 3e 70 94 07 3e bc 83 8f 3e c2 c4 e2 3d
       0.21254675 0.13240218 0.28030193 0.11072685
0000f0 c3 56 59 be 48 3b bf be a5 13 10 be 7a 39 9c be
       -0.21224503 -0.37349916 -0.14069994 -0.305126
000100 97 d1 3c 3c 1d c2 8c 3e 04 e2 a5 be 72 eb 89 be
       0.0115245795 0.27491847 -0.32399 -0.26937443
000110 43 ba a0 3e a5 c7 95 be d5 ae 96 3e 45 bd 32 bd
       0.31392106 -0.2925388 0.2943026 -0.043637533
000120 1a 88 43 bd 1e 06 36 3e 50 3a bd bb 0a 11 2b be
       -0.04773722 0.17775771 -0.0057747737 -0.16705719
000130 8d 0b b4 3c 8a 29 ac bd 79 71 ca 3a 47 2a bb bd
       0.021978164 -0.084063604 0.0015445194 -0.09138923
000140 0c b4 6e be 48 e9 a2 bb b7 86 94 3d ee 19 b7 3d
       -0.2331087 -0.004971657 0.07252257 0.089404926
000150 a1 f6 49 3e a1 f1 65 3e 44 af 43 3e ae 40 4c 3d
       0.19722988 0.22455455 0.19109827 0.04986637
000160 ca 08 7b be 0f 3e 97 3c e7 d2 32 3e 44 34 87 be
       -0.24515072 0.018462209 0.17463265 -0.26407063
000170 98 1b 96 be cd 4f 85 3a 73 91 1a 3e db 56 a2 be
       -0.29317927 0.0010170877 0.15094547 -0.3170689
000180 86 40 8e bd 6d 8e 11 3d 7c f3 30 bd df f9 cc bd
       -0.069459006 0.03553622 -0.043200955 -0.10008597
000190 c6 b4 ac be 5b c9 2f 3e 3c d5 98 3d 0e 7d 91 be
       -0.3373167 0.17166655 0.07462546 -0.28415722
0001a0 72 20 c6 3d 9b f6 81 be 24 ac 66 3d 61 fe 63 be
       0.09674157 -0.25383458 0.05631651 -0.22265007
0001b0 06 0d 86 bd 5f 30 4d be d0 96 3b bd cc 26 8d 3e
       -0.06545453 -0.20037983 -0.045798123 0.27568662
0001c0 4f f5 4d 3c b6 b6 ad bd ef 8a 84 bd b8 bb 1e bc
       0.012570693 -0.08482115 -0.06471812 -0.00968831
0001d0 59 6f ef 3d f1 ab 77 3e a6 40 42 bd ed b4 a8 3d
       0.1169116 0.24186684 -0.047424935 0.08237634
0001e0 2e 33 64 be cf 3a 9b 3e ad 0e 2c bd 59 00 9a 3e
       -0.22285149 0.30318305 -0.042006183 0.3007839
0001f0 93 3b 8d 3e 5f c9 77 be f3 7f 61 3e 24 f9 38 3c
       0.27584514 -0.2419791 0.22021465 0.0112898685

fc3.weight f4 [5, 128]
000000 42 b7 f4 bc a4 ed a7 bc 9c 6a 04 3d 12 65 06 3d
       -0.02987254 -0.020499058 0.032328233 0.032811232
000010 fc 4e 21 bc 86 e4 20 bd 9c 45 0a bc 72 8e 89 3c
       -0.0098454915 -0.039280437 -0.008439448 0.016791556
000020 46 e9 1d 3d 25 31 ee bc d2 1c 72 bd 43 c1 8a bd
       0.038552545 -0.029076168 -0.059109516 -0.06775143
000030 a3 75 17 bd 64 be c4 bc 78 32 2c 3d 1f f2 3d bd
       -0.03697742 -0.024016567 0.04204032 -0.046373483
000040 58 3c da 3c d9 30 c8 bc ba 46 82 3c 84 e3 40 3c
       0.026640102 -0.024437355 0.015902866 0.011772994
000050 a4 0f 17 3d 01 81 5d 3d ba 24 20 3c be 72 79 3c
       0.03688015 0.054078106 0.009774381 0.015225111
000060 c7 69 e9 bc b7 25 8b 3c c4 db cd 3b 6f 0c 55 3d
       -0.028492821 0.016985757 0.0062823016 0.05201381
000070 af 8f ff bc e8 cd a0 bc 9d b9 c5 bc 27 45 c9 bb
       -0.031196443 -0.019629434 -0.024136359 -0.006142277
000080 23 65 86 3d 4e c6 cc bc 64 87 bf 3c ae a8 16 bd
       0.06562259 -0.024996903 0.023379989 -0.03678196
000090 96 66 82 bc 24 6f 9b bb 41 a1 2d bb 69 a9 07 3d
       -0.015918057 -0.0047434736 -0.002649382 0.033120546
0000a0 a3 f0 af 3d 80 4c 03 3d 6b 56 cb 3c 21 e0 aa 3c
       0.0859082 0.032055378 0.02482148 0.020858826
0000b0 a2 e2 4a 3d 37 4f fc bc ab 62 c9 3c 41 9e 5b 3d
       0.04953254 -0.030799491 0.024583181 0.05361772
0000c0 9d bb 18 bd d1 a3 11 bd b3 fc 42 3c e0 ed f6 bc
       -0.037288297 -0.035556618 0.0119010685 -0.030142725
0000d0 99 12 a4 bb fd de 8c 3d f6 24 48 bc a8 82 3e 3d
       -0.0050071 0.06878469 -0.012215843 0.046511322
0000e0 38 b4 82 3d 0a 62 23 3d bf 64 71 bb d6 57 45 3c
       0.0638203 0.03988842 -0.003683373 0.0120448675
0000f0 a8 93 9f bc 59 64 5b bc d0 e9 de 3c 00 ca 3a bd
       -0.019479588 -0.013390624 0.0272111 -0.0456028
000100 60 34 f2 bb 37 05 64 bc 96 83 6f 3c a2 bc 90 bd
       -0.0073914975 -0.013917259 0.014618775 -0.07067229
000110 25 94 02 bb 9b 70 f4 3c f7 8c ca bc a2 4a 2c 3d
       -0.0019924727 0.02983885 -0.02472542 0.042063363
000120 14 3e 91 3c ad b4 6d bb d9 a7 95 bc fc 91 58 bd
       0.017729796 -0.0036271021 -0.018268513 -0.052873597
000130 f7 4d 45 bd c8 99 c8 3a 73 ca 1a 3c 47 ea 27 3d
       -0.048170056 0.001530462 0.009447682 0.04099491
000140 43 fc 85 bc 32 7f 1f 3c 9e 5e 16 bc b5 95 29 3b
       -0.01635564 0.009734916 -0.009177832 0.0025876586
000150 f0 52 bd 3c ad 82 d8 bb 01 c5 4f 3d 22 da db bc
       0.023110837 -0.0066073746 0.050724987 -0.026837412
000160 d1 91 8c bd c5 6f 52 bc 86 2e 3e bb 6e 03 c3 3c
       -0.0686375 -0.012844031 -0.002901943 0.023805346
000170 1b 02 74 ba c8 f5 de 3a be 5c 18 3d 0b fd 90 3d
       -0.0009308175 0.0017010504 0.03719782 0.07079514
000180 e7 be 97 3c f0 4e 6f bc ad 2b 43 3d e4 8f 82 3c
       0.018523647 -0.0146062225 0.047649074 0.015937753
000190 8a 3e 03 3c 46 63 89 bc fe 20 3b 3b 1e 3b 29 3c
       0.008010516 -0.01677097 0.00285536 0.010329036
0001a0 00 13 73 3c 23 ac 03 3c 4f ee 60 3d 3f f2 0e 3d
       0.014836073 0.008036646 0.05491477 0.034898993
0001b0 0b f4 52 bc 13 e4 56 bd 7a 84 66 bc c3 f0 58 3d
       -0.012875567 -0.052463602 -0.014069671 0.052963983
0001c0 19 6d 65 bc 18 61 29 3d 51 23 9c 3c 3b 30 97 bc
       -0.014003062 0.04135236 0.019059809 -0.018455615
0001d0 6c af 76 bd ce 57 89 3d 79 c9 12 3d a2 5a 71 3d
       -0.06022589 0.067062005 0.03583667 0.058924325
0001e0 67 52 00 3d 35 b2 09 bd c5 bc cc bc db 6f fb bc
       0.031328585 -0.033617217 -0.024992356 -0.030692985
0001f0 fd 20 0b bd 09 d7 4b bc 80 a6 c9 bb cd 73 98 bc
       -0.033967007 -0.012441405 -0.0061538815 -0.018609906
000200 ac 80 eb 3b db 5b 94 3c d9 4e 9d bc 81 b4 df 3c
       0.0071869697 0.018110206 -0.019202637 0.02730775
000210 86 23 16 3d 6c 10 24 3c 43 0b 5c 3d 40 76 a4 3d
       0.03665497 0.010013681 0.053721678 0.08030367
000220 66 1c e8 bc 76 cb bb 3c 83 fb 37 3c 16 18 ab bc
       -0.028333854 0.022924166 0.011229399 -0.020885509
000230 de 46 12 3a c0 ae 13 3c f9 32 e5 bb a6 b8 03 bc
       0.0005580018 0.009013832 -0.006994602 -0.008039629
000240 6b 9f 11 bd 8c 21 11 3d b5 28 a2 bc 1e ea 39 3d
       -0.035552423 0.035432383 -0.019794801 0.045389287
000250 8c ce 05 bc 06 d2 8b 3d 36 25 64 bd 43 79 d5 bc
       -0.00816692 0.06827168 -0.05569955 -0.026058799
000260 ca fe 1c 3d 41 18 04 bd 20 63 10 bc 93 3c 0f bc
       0.038328923 -0.032249693 -0.008812696 -0.008742469
000270 8f cc 83 bd 69 37 0f 3b 79 83 04 3d f7 60 03 3d
       -0.06435501 0.0021853095 0.032351945 0.032074895
000280 c3 ec 77 3c ad f4 4d 3c 09 1a 5d 3d e1 17 a8 3a
       0.015132132 0.012570542 0.053979907 0.0012824499
000290 8e 13 47 3d ca 7b 0e 3c 16 13 f6 3c 6d 33 cf bc
       0.048602633 0.008696506 0.030038398 -0.025293076
0002a0 5b 62 b5 3d ee d2 a3 bc 9f 65 c5 bc 22 4b 1b bd
       0.088566504 -0.01999804 -0.024096308 -0.03791345
0002b0 6b 57 cd bb a8 e7 ea 3c 7d c6 24 3d 94 47 71 bc
       -0.0062665245 0.028674915 0.040228356 -0.014726538
0002c0 73 ad e9 3c 3c 86 b9 3c dd 0c 63 bd ae 0a 01 3d
       0.02852509 0.022647016 -0.05543219 0.031504326
0002d0 92 2c 5b bd a5 4a a3 3c 86 68 63 bd 47 9c 3d bc
       -0.053509302 0.019933054 -0.055519603 -0.011572904
0002e0 4d cb 7f 3c 90 8e 63 bc a7 9f 8a bd 02 fd 91 bc
       0.0156124355 -0.01388897 -0.067687325 -0.017820839
0002f0 bc f5 e3 3c 20 30 92 bd 2b 56 a2 bc d7 f4 e4 3c
       0.027827136 -0.07138085 -0.019816479 0.02794878
000300 76 28 2d 3d 8d 33 85 bc 62 d6 27 bd a7 4c 93 bc
       0.042274915 -0.016259933 -0.040975936 -0.017980887
000310 f9 3c a4 3d 80 97 53 bc 36 a6 18 3d f1 bc 26 bc
       0.08019442 -0.012914538 0.037267886 -0.010176883
000320 a4 c6 1b bd 89 3d 47 3d 55 18 1f 3d e0 2b 70 3b
       -0.038031235 0.04864267 0.038841564 0.0036647245
000330 c0 e2 c5 bb 2d 22 9a 3a 34 fe 13 bd 60 a3 27 3d
       -0.0060389936 0.0011759453 -0.0361311 0.04092729
000340 06 5f 51 3d 49 68 c6 3c 19 3a 21 3d da 87 8c 3d
       0.051116012 0.024219649 0.039362047 0.06861849
000350 d8 67 fc bc fb 27 31 bd 29 e9 7c 3c 2e 31 fa 3c
       -0.030811235 -0.04325102 0.015436449 0.030541029
000360 b7 61 42 bc 09 cc 2a 3d 41 d6 e4 3b 00 c6 e4 bc
       -0.011864117 0.04169849 0.006983549 -0.027926445
000370 26 23 90 3d 6e fb 45 bd 06 bc af 3b 3c 62 af 3c
       0.07037954 -0.048335485 0.0053629903 0.021409146
000380 61 0b 62 3d 90 eb 22 3d 22 51 95 3a e4 22 09 bd
       0.055186633 0.03977543 0.0011391977 -0.03348054
000390 fc c2 3b bd f5 38 f6 bc 87 16 94 bc 73 d0 1a bd
       -0.04584025 -0.030056456 -0.018077148 -0.03779645
0003a0 d2 f8 f5 37 13 6a e0 bc 8d cb be 3d df 93 4e 3c
       2.9322142e-05 -0.02739433 0.09316168 0.012608497
0003b0 6e 62 01 bd b4 c5 8a 3c 82 11 0c 3d 16 69 9d 3b
       -0.03158801 0.016939975 0.034196384 0.004803787
0003c0 ed ec 8f bd cf bd eb 3c 85 ea 09 3d 86 a4 a6 3c
       -0.07027612 0.028777031 0.03367092 0.020342123
0003d0 53 3b 88 bd ed f4 96 3c 47 bd 96 bc 03 dd 6b bc
       -0.0665194 0.018427337 -0.018400801 -0.014395955
0003e0 77 01 b4 3d b7 ad 95 3c 2b 44 d7 3c b7 ad 15 3d
       0.08789342 0.01827131 0.026277622 0.03654262
0003f0 62 f5 2b bc e4 cd 32 3c 52 f5 89 bd 92 52 f0 3c
       -0.010495516 0.010913346 -0.06736244 0.029336248

fc3.bias f4 [5]
000000 06 72 dc be 03 37 54 be 6f e2 3a bf af 10 58 3f
       -0.43055743 -0.2072411 -0.7300176 0.8440046
000010 32 77 01 3f
       0.505725
