examples/predict/epoch_40000/classifierFC_epoch_10000.pth (torch, 137055 bytes, 6 tensors)

fc1.weight f4 [128, 128]
000000 7b 76 a0 3d 3c 32 64 3c 61 eb f5 bc e8 68 dd 3c
       0.07835098 0.013927992 -0.030019464 0.027027562
000010 cc 00 af 3d 39 8d 6f 3d 45 b3 34 3e b7 6d 90 3c
       0.08545074 0.05848429 0.17646511 0.017630441
000020 c0 2f 15 bd 9a 9f b2 bc ad b3 09 ba e7 69 d4 3d
       -0.03642249 -0.02180462 -0.0005252909 0.10371762
000030 0d 84 a9 3d 3a b6 be 3d 98 27 63 3d 93 60 c3 3c
       0.0827714 0.09312101 0.05545768 0.023849761
000040 fb cc 76 bd ab 16 3a bd 69 aa 7f 3d a8 ee bb bd
       -0.06025408 -0.045431774 0.062418375 -0.091763794
000050 ee d2 38 be 03 e4 6c bd 55 06 f8 3d a3 a5 f5 bd
       -0.18049213 -0.057834636 0.12110583 -0.11994483
000060 7c 84 f9 3b 6c 4d 0e be e4 92 0e be 0c e9 d4 bd
       0.0076146703 -0.13896722 -0.13923222 -0.10396013
000070 c7 a3 8d 3c cc 84 0f bd bc 68 f9 3b 8d 54 da bd
       0.01729001 -0.035038754 0.0076113623 -0.10660658
000080 0c 74 64 bd c6 c8 73 bd 3e a6 3e 3c 9b 98 17 3d
       -0.055774733 -0.059517644 0.011636315 0.03701077
000090 93 1d ff 3b a2 ea 5e 3d aa 7c 3c be f3 7e 65 3d
       0.007785508 0.054422982 -0.1840693 0.05602927
0000a0 c0 60 3e 3d a0 dc a4 bd 23 f3 20 be 93 24 15 3d
       0.046478987 -0.080498934 -0.1571775 0.036411833
0000b0 3c a4 ca 3d d4 97 25 3d d7 a3 81 bd 6b c8 82 bd
       0.098946065 0.040427998 -0.06330078 -0.06385883
0000c0 1c c0 c0 3c b7 31 ed bc 55 7e 89 bc 96 1e 15 bd
       0.023529105 -0.02895437 -0.016783873 -0.036406122
0000d0 f0 a7 99 bd 19 72 09 bc 06 dc bf 3c 47 20 36 bd
       -0.07502735 -0.008389019 0.023420345 -0.044464376
0000e0 92 bf 6b bc 08 7c 32 3c 71 8c 2c 3d b5 5a c1 3d
       -0.014388936 0.010893829 0.042126123 0.09441129
0000f0 ad 70 ef 3c d6 f5 e4 3d 2d 85 99 bc 4b 99 ba ba
       0.029228533 0.11179702 -0.018740261 -0.0014236359
000100 6d df ca 3d ea be 6f bd 19 c9 d6 3c a3 c7 18 bd
       0.09905896 -0.05853168 0.026218938 -0.037299763
000110 45 c2 95 bd 93 28 eb 3c 2e b6 5f 3d 87 70 06 bd
       -0.073124446 0.02870587 0.0546171 -0.03282216
000120 79 c6 2e 3d 83 9a 05 3e d2 e5 86 3d a8 96 a0 bd
       0.042669747 0.13047223 0.065868035 -0.078412354
000130 c0 48 44 3a c5 f0 9d 3d 07 c7 3c be 05 bc ac bd
       0.0007487647 0.07711939 -0.18435298 -0.084342994
000140 20 91 4d bd aa 50 c8 bd 21 2c 6a 3d ee c4 71 bc
       -0.05018723 -0.097810104 0.05717099 -0.014756424
000150 73 b2 d4 bd c6 d8 cb bd eb 0e 93 bd 9a b5 d7 bd
       -0.10385599 -0.099534556 -0.0718058 -0.105326846
000160 02 a3 51 3d bc f6 c5 bd cc fa 80 3d b3 af 61 bd
       0.051180847 -0.096662015 0.06297836 -0.0550992
000170 bf 53 33 bb 2c e6 37 3d 36 85 95 3c 75 66 f7 3c
       -0.002736315 0.044897243 0.018251996 0.030200223
000180 30 78 d9 3d d2 f7 25 3e 80 8f 3d 3a 1e 02 ad bd
       0.10618627 0.16207817 0.0007231161 -0.084476694
000190 73 4f b8 be 01 c3 a4 bd 8b 17 54 3d a8 7b f7 3c
       -0.35998115 -0.080450065 0.051780265 0.030210331
0001a0 cf fd 67 bd 7f 8e c7 bd 77 14 80 bd cc 4b cc 3c
       -0.056638535 -0.09743976 -0.06253903 0.024938487
0001b0 11 c2 51 be 6d aa a1 bd f2 df 00 3e fd 35 bd bd
       -0.20484187 -0.07893834 0.12585428 -0.09238813
0001c0 6a 22 c8 bb 36 b7 39 3d 48 52 be 3d 35 6b 69 bc
       -0.006107618 0.04534074 0.09293038 -0.014246752
0001d0 e7 db 0b 3d 86 9b a3 3d 5c 1c b8 bc 49 24 bb 3d
       0.034145262 0.07988648 -0.02247446 0.0913778
0001e0 9e ed 86 be 58 44 77 bb 3f 17 ae 3d e7 8a 13 bd
       -0.26353163 -0.0037729945 0.085005276 -0.03602114
0001f0 f5 09 f2 3c f1 96 6a 3d 8f b1 ae bc 75 9e a9 bd
       0.029545764 0.057272855 -0.0213249 -0.082821764
000200 a2 99 ff bd e5 70 32 bc d4 86 a0 3d 34 35 f5 bd
       -0.12480475 -0.010891174 0.078382164 -0.11973038
000210 55 7e c0 3d fa a8 32 bd 06 f1 23 be 70 c1 62 bd
       0.09399096 -0.04361818 -0.16009912 -0.055360258
000220 c4 bf 8b 3d 2b 11 ba bd 04 11 06 3e f5 d4 2a be
       0.06823686 -0.09085306 0.13092428 -0.16682799
000230 05 c8 ec 3d 12 b4 b9 3d c6 a4 40 3d ea b6 ab bd
       0.11561588 0.09067549 0.04703214 -0.083844975
000240 0b 9c fe 3d 1e 87 03 be b9 67 27 bd af 86 c7 bd
       0.124321066 -0.12844512 -0.040870402 -0.09742486
000250 4e c9 ce 3b 16 57 82 3c 8f 0a 06 3d 67 ff aa bd
       0.0063106185 0.015910666 0.032724913 -0.083494954
000260 c7 4f 06 3e 08 6e ef 3d 75 db 5e bd 4d af 8a 3d
       0.1311637 0.11690909 -0.05440851 0.06771717
000270 67 ca 9e bc fc 0f 67 bd 0f 74 8d bd 18 6c 54 3b
       -0.019383622 -0.05641173 -0.06906902 0.0032413062
000280 39 98 c7 bd cd c0 8b bd 5c b1 0b bc 06 c2 65 bd
       -0.09745831 -0.06823883 -0.0085261725 -0.05609324
000290 7a fb 14 bd a6 3f b0 3d 9f 62 15 3c ad 1c c7 3c
       -0.03637264 0.0860589 0.009117751 0.024305666
0002a0 7d 9c 47 bd 4b 6e 7f bd 8d 15 d6 bd 0d f4 4f 3e
       -0.048733223 -0.062361043 -0.10453329 0.20307942
0002b0 b8 c5 b1 bd 15 fd 8f bd e6 b3 cd bd d0 eb b0 3c
       -0.0868029 -0.070306934 -0.100440785 0.02159682
0002c0 92 b6 85 bb 2f d9 8e bc 7d 78 40 be 23 ef 99 bc
       -0.004080602 -0.017437546 -0.18795963 -0.018790787
0002d0 4d 3a 08 3d 5f b5 12 3c 6d d7 e0 3d e6 6d 23 3b
       0.033258725 0.008954375 0.10978589 0.002493733
0002e0 a6 5b a1 bd 17 a9 07 3d 65 da 0f 3c b8 45 23 3c
       -0.07878809 0.03312024 0.008780097 0.009965353
0002f0 e2 29 06 bc f8 e8 6c 3d 7d b5 0d 3c 84 45 85 3c
       -0.008188697 0.057839364 0.008649227 0.0162685
000300 11 b2 09 be 36 75 36 3e 0a 88 97 bc 43 4e c7 bb
       -0.13446833 0.1781815 -0.018497486 -0.0060823276
000310 42 5a 30 3e fd 6a 04 3d 0e 42 4e bd ae 3b 27 be
       0.1722193 0.032328594 -0.050355963 -0.1633136
000320 19 ee ed 3a c9 c3 2f be 00 24 7d 3c 2f d9 e6 3d
       0.0018152624 -0.1716453 0.015450478 0.11271893
000330 87 2d b6 bd 1c fb cc 3b 41 41 ad bd 4a 7d 9c bc
       -0.088954024 0.0062555205 -0.08459712 -0.019102711
000340 83 5f 0b bd e0 0a 73 3d 30 78 1a 3e 58 ea f5 bd
       -0.034026634 0.059336543 0.1508491 -0.12007588
000350 84 8a c0 3c 21 8c e1 3d 93 0f 54 3d a1 21 e1 bc
       0.02350355 0.110130556 0.051772665 -0.027481856
000360 13 b9 9d 3d fa d1 cb 3d bf 23 2c bd 18 7e 96 3c
       0.07701316 0.09952159 -0.042026278 0.018370673
000370 88 b5 1a 3e 61 01 26 be bd ee 66 3d 21 4c 16 3c
       0.15108311 -0.16211464 0.056380022 0.009173424
000380 45 9a fc 3c 1b 9a 11 be 0d a4 97 3c 4f d7 ae 3d
       0.03083528 -0.14218943 0.018510843 0.085371606
000390 b5 38 4f 3d 7d ed f3 bc 72 12 f2 3c 64 ed 05 3e
       0.05059119 -0.02977633 0.029549811 0.13078839
0003a0 e2 26 29 ba cf ea 48 3d 5e 78 3a bd 59 e3 2e bd
       -0.00064526324 0.049052056 -0.045524947 -0.042697284
0003b0 ba 3c cf bc 73 24 b3 bd 24 c7 c1 3c ef 41 9f 3d
       -0.025297511 -0.087471865 0.023654528 0.07776248
0003c0 3a 9c b1 3d e4 d0 f6 3d d3 2e 89 3d 93 d8 87 bd
       0.08672376 0.120515615 0.06698384 -0.06633105
0003d0 1c f3 0b bd 3d 01 a2 bd 01 35 96 3d da 55 2d bd
       -0.034167394 -0.079103924 0.073343284 -0.042318203
0003e0 b9 fc 0b 3e a2 d5 d2 bc b8 7e 2c bd e4 f1 b2 bd
       0.13670625 -0.025736634 -0.042113036 -0.08737543
0003f0 2b ce 4f bd 05 f0 1f be 08 61 25 3c 70 22 84 bc
       -0.050733726 -0.15618904 0.010093935 -0.016129702

fc1.bias f4 [128]
000000 b8 59 9b bc d4 91 76 bd 48 08 c8 bc 76 f2 28 bc
       -0.01896368 -0.060197666 -0.024418011 -0.010311713
000010 ce d3 8c 3d 08 59 8a bc 31 b8 23 3c 94 88 a5 bd
       0.06876336 -0.016888157 0.009992645 -0.08082691
000020 01 f0 6f 39 16 a5 1f 3d d9 64 71 bc 37 18 81 3c
       0.00022882225 0.038975798 -0.014733517 0.015758617
000030 4d 5d fe 3b 5c 6c d9 bc c2 7d 8c 3d d5 2d c2 3d
       0.007762587 -0.026540928 0.06859924 0.09481398
000040 dd 43 39 3c a8 69 93 3d 98 17 bd 3d e4 41 38 bd
       0.011307684 0.07197887 0.09233016 -0.044984713
000050 21 41 02 bd e8 e0 a8 bc 7d 8f 02 3c e8 ad 65 3d
       -0.031800393 -0.020615056 0.007968781 0.056074053
000060 09 00 b4 3b c7 29 7b 3d 9d d7 07 bd 2c aa f4 bc
       0.0054931683 0.06131914 -0.03316461 -0.0298663
000070 ea 67 24 bc 06 8d 53 3d 11 d6 b0 3c ba 32 73 bd
       -0.010034541 0.051648162 0.02158645 -0.05937455
000080 1b 5f 38 bd e0 f2 cf 3c 54 64 31 bd 04 5d 4b 3d
       -0.045012575 0.025384367 -0.04330857 0.049649253
000090 7f 36 32 bd 6a b9 2a 3d d5 b4 13 3d f1 f5 39 3d
       -0.043509003 0.04168073 0.036061127 0.045400564
0000a0 d7 ba cf bc b1 c9 72 bc ad 97 2a bd 5f 51 82 3c
       -0.025357647 -0.014818595 -0.041648556 0.015907941
0000b0 24 22 9f 3c 3d 7e c7 bd 4b 2d 86 3d ec 0b ba 3d
       0.01942546 -0.09740875 0.06551608 0.09084305
0000c0 a1 8a ac 3c 08 16 3f bc e3 c9 99 bd 11 5b b3 bd
       0.021062197 -0.0116629675 -0.0750921 -0.08757604
0000d0 91 7d 8c 3d 0c 0f 48 bd 77 b7 34 3d b2 95 9e 3d
       0.068598874 -0.048842475 0.04412028 0.07743396
0000e0 c7 79 d7 bd f9 0d dc bd 6a b3 8c 3d 37 43 fe 3d
       -0.10521274 -0.107448526 0.06870158 0.12415164
0000f0 d2 c5 a2 bd be ba 5d 3d d4 7f 0e bd 2b fd aa bc
       -0.079478875 0.05413317 -0.034789875 -0.020872673
000100 3a c7 84 bd bf 82 3e 3d cf b7 b4 3d 97 fa b8 bd
       -0.06483312 0.046511408 0.08824121 -0.09032171
000110 e6 7b 0b 3d 18 e5 a0 bb c6 44 cf 3c 18 d5 87 bc
       0.034053706 -0.0049101226 0.025301348 -0.016581103
000120 e1 ce 9d 3d 17 78 66 3d eb 71 26 3d 38 a9 29 bd
       0.07705475 0.05626687 0.040635984 -0.041421145
000130 0e 8d 44 3a 59 e9 17 bd ee 20 e3 37 60 3f 6c bd
       0.00074978254 -0.037087772 2.7075843e-05 -0.057677627
000140 92 bd 5f bd a1 56 6e bd 6a dd bd bc 2f 38 08 3e
       -0.054624148 -0.058188085 -0.023176868 0.13302682
000150 d2 ac ce bb 84 44 ea bd 88 74 70 bd 86 4d ed b9
       -0.006307223 -0.114388496 -0.058704883 -0.00045261922
000160 c8 48 c8 bc e3 83 0d bc 75 5b 2e bb 31 85 5c bd
       -0.024448767 -0.008637401 -0.0026604806 -0.05383796
000170 95 8d 16 be a1 44 9e bd 25 8f 77 3d e0 ea 1e bd
       -0.14702447 -0.07727934 0.060439248 -0.038798213
000180 fe 74 69 bd 60 1e 42 3d 8d 2c 0c 3d 79 03 11 bd
       -0.056996338 0.04739225 0.034222174 -0.035403702
000190 4e db 5c 3b 68 95 d4 bc a1 e5 a3 bd a5 2c 89 bc
       0.0033700052 -0.025950149 -0.080027826 -0.016744921
0001a0 06 59 e2 bd c4 15 b3 bd de a5 05 3d cf 06 5c bd
       -0.11052136 -0.08744386 0.032628886 -0.05371743
0001b0 8e 9e 75 bd f3 12 10 be 4d 15 22 bd c1 7c 55 3d
       -0.059965663 -0.14069729 -0.039571095 0.052120928
0001c0 cb 2d 26 bd 06 27 e8 bb 8f 91 82 bd cd 63 1f 3d
       -0.040571015 -0.00708473 -0.06375419 0.038913537
0001d0 cc ac 08 bc 24 de 95 3d a1 9a d9 bc cc 71 33 bd
       -0.008341979 0.073177606 -0.02656299 -0.043809697
0001e0 66 2b 5d bd fd 8a cb bc 4d d8 81 3d d8 06 3d bd
       -0.053996466 -0.024846548 0.06340084 -0.046149105
0001f0 13 7b 43 bd e3 86 05 3c b7 80 ce bc 39 33 92 bd
       -0.047724795 0.008149835 -0.02520786 -0.07138676

fc2.weight f4 [128, 128]
000000 c2 af 13 bc 93 84 af ba 49 15 5d bc ca 29 91 bd
       -0.009014072 -0.0013390951 -0.013493844 -0.07088049
000010 30 b6 90 bb 44 b5 83 bd 97 a0 49 bc 0d 6c ae 3b
       -0.0044162497 -0.06431058 -0.012306354 0.0053229393
000020 69 2e 2f 3c ce 74 ab bc 3c 75 ce 39 05 8b ec bd
       0.010692217 -0.02092972 0.00039378728 -0.11549953
000030 dd bd 0b be a3 e3 25 3c ef 66 fd 3d 9a 0b 97 3d
       -0.13646646 0.010125074 0.12373149 0.0737526
000040 7c 94 8b bd e7 de ea bb af d5 36 3d 14 6c 8e bd
       -0.068154305 -0.0071676853 0.04463738 -0.06954208
000050 28 ee 29 3d b0 4a a8 bd b1 26 80 bc c1 71 45 bd
       0.04148689 -0.082173705 -0.01564345 -0.048204187
000060 0e c3 aa bd 24 24 0b 3d f8 8a 5b 3d 18 cb 02 be
       -0.08337985 0.033970013 0.053599328 -0.12772787
000070 bd 18 25 3d c3 b5 f3 3c 37 8c 8a bd 55 e0 4f b8
       0.040306795 0.029749757 -0.06765025 -4.956157e-05
000080 a8 8c fb 3d 24 db 0d bb 64 06 2f bd da 40 ad bc
       0.122826874 -0.002164551 -0.042730704 -0.021149088
000090 4c da e8 bd f0 89 cc bd 47 64 51 bd 6b 49 06 3c
       -0.11369762 -0.09987247 -0.051121023 0.008196215
0000a0 6d 8c 81 bd 33 f5 3b be 11 9c 0d 3e 49 36 82 bc
       -0.06325612 -0.18355255 0.13829066 -0.015895026
0000b0 03 35 95 bd 71 d2 fe bd f7 64 26 3e e7 25 63 3d
       -0.07285502 -0.12442482 0.16249453 0.05545607
0000c0 ea 61 38 be 1d 97 2e 3d 38 7c 56 3d 13 9d 9d 3d
       -0.18006101 0.04262458 0.052364558 0.07695975
0000d0 26 b2 27 bd 85 c3 18 bb d6 0b f5 bb 34 57 4c bc
       -0.04094138 -0.0023309898 -0.0074782176 -0.012471963
0000e0 be 65 e7 bc ae 87 81 bd 63 8e 62 3c d0 1d f6 bc
       -0.028246757 -0.06324707 0.013827893 -0.030043513
0000f0 5d c0 b8 bd a4 9d 47 3d 0c 24 9c bd 11 07 74 3c
       -0.090210654 0.048734322 -0.07624063 0.014894263
000100 ef ff 80 bd eb f1 76 3d d2 c2 83 3d 22 e2 93 bc
       -0.062988155 0.060289305 0.064336434 -0.018052164
000110 5d b6 56 bd 93 09 67 bd cd b2 13 3d b8 d2 40 bd
       -0.05242001 -0.056405615 0.03605919 -0.047075957
000120 76 d8 85 3b f5 e4 5e 3c a0 68 d8 bd c7 2e fb 3c
       0.004084642 0.013604392 -0.10566831 0.030661954
000130 6e c4 91 3d ec c1 94 3d 36 fe 44 bd 97 56 23 3c
       0.07117544 0.0726355 -0.048093997 0.009969375
000140 16 6d 5c 3d 7f 5d 8b bc cf 55 1f bd 36 31 a9 3d
       0.05381497 -0.017012356 -0.038900193 0.08261339
000150 f0 fb 7d bd 8f ce 84 bd c4 1b e3 3d d4 87 e5 bd
       -0.062007844 -0.064847104 0.1108928 -0.11207548
000160 3f 82 90 bd d0 04 6c 3d d2 49 59 3d b1 97 b9 bd
       -0.070560925 0.057621777 0.053048916 -0.09062136
000170 18 9c 0c bd b4 fe c3 bd ba 47 0a 3d f1 f3 28 be
       -0.03432855 -0.09570065 0.03375981 -0.16499306
000180 17 92 56 3c a3 7d 9b 3d 81 10 14 bd e8 a0 51 bd
       0.013096354 0.07592323 -0.03614855 -0.051178843
000190 8b c7 b3 bd 23 f2 ce 3d 2d ce fc bc 80 ac 6d bc
       -0.08778294 0.10104778 -0.030860031 -0.014506459
0001a0 42 63 08 3d 73 d0 63 3d b2 fb 82 3c ce 8d 8a bd
       0.033297785 0.055618715 0.015989158 -0.06765328
0001b0 4c 71 23 bd f6 8c bf 3c 47 41 73 bd c5 f0 bb 3c
       -0.03990297 0.023382645 -0.059388425 0.022941956
0001c0 73 b7 2f 3d 2c fb 8b 3d fb a6 c8 bd 0a 58 e8 bc
       0.04289956 0.068350166 -0.09797474 -0.028362293
0001d0 f9 ff 91 3d e0 e8 76 bc 6f c4 73 3d fb 94 ee bc
       0.07128901 -0.01507017 0.059513506 -0.029123774
0001e0 17 84 13 3d b6 86 44 bd b4 72 b9 3b 73 fd 4d bd
       0.036014643 -0.047980033 0.0056594256 -0.050290536
0001f0 5c 41 06 be ef a3 9a 3d cf fa 18 be da 67 dc 3d
       -0.1311087 0.07550799 -0.14939426 0.107619956
000200 d7 88 14 be cb 4f dc bc f6 d0 7e ba e8 0f f8 3c
       -0.14505325 -0.026893517 -0.00097204687 0.030281022
000210 10 f9 4a bd c6 40 18 3b b1 f5 93 bd 04 26 22 3d
       -0.04955393 0.0023231967 -0.07224596 0.039587036
000220 18 66 e7 3c 8c 44 e6 bd 3f 78 bc 3c 67 d4 c2 bc
       0.028246924 -0.11243543 0.023006557 -0.023782922
000230 44 83 8f bd f0 1c a7 3a 35 99 cf bc ae 0c c1 3b
       -0.07007459 0.0012749713 -0.02534161 0.005891404
000240 65 d2 8b bb 02 15 32 3c fb 9a 43 3c f5 79 ad 3d
       -0.0042670243 0.010869266 0.011938806 0.08470527
000250 a3 a0 7e 3c 5a 0d 07 be 06 0f 3c be 5d 7d 41 be
       0.0155412285 -0.13188687 -0.18365106 -0.18895479
000260 ae 2a bc 3d ea 4d 75 bc 97 33 b1 bd 8c 30 cf bc
       0.09187828 -0.014972189 -0.08652418 -0.025291704
000270 b2 e5 4f bd 0c 35 17 3d ed c4 e2 3c 01 89 a8 bb
       -0.050756164 0.036915824 0.027681792 -0.0051432853
000280 ff 1d a5 bd 6b 39 da bd 15 4b 11 3e f7 32 b0 39
       -0.08062362 -0.10655483 0.14188798 0.00033607308
000290 02 e7 23 3c be 35 5a 3c ac 68 13 be 9d 37 ee bb
       0.010003807 0.013318477 -0.14395398 -0.007269813
0002a0 a0 83 2c 3d 4e 51 9d bd 10 ee 1f 3d 4b 56 35 bd
       0.042117715 -0.07681523 0.039045393 -0.04427175
0002b0 30 e2 e1 3d 3a 4b 2b bd e3 e2 28 bc 34 b8 10 3c
       0.1102947 -0.04181979 -0.010308 0.00883298
0002c0 4f 54 93 3d 5b 0b 81 3d 58 4e d7 3d a2 cc 12 3d
       0.07193815 0.06300994 0.1051299 0.035839684
0002d0 00 bf ec bc a6 35 d0 3c 1a d4 87 3c aa 0f 06 be
       -0.02889967 0.025416207 0.01658063 -0.13091913
0002e0 f4 5a 92 3d 6b 0b 92 3a f0 24 4a bd 16 c7 2b 3c
       0.07146254 0.0011142319 -0.049351633 0.0104844775
0002f0 9f 34 77 bc ec b5 4d bd 6a e1 3a 3b ed 39 bd 3a
       -0.015088229 -0.050222322 0.0028515705 0.0014436819
000300 84 56 ad bc 47 90 56 bc 94 d7 0d bd 32 fd 4f 3e
       -0.021159418 -0.013095922 -0.03462942 0.2031143
000310 b5 4b ee bc 47 d2 2a 3d 17 ed 0c 3e 5c 85 a1 3d
       -0.029088834 0.041704442 0.13762318 0.078867644
000320 35 01 55 3d 41 87 74 3c 73 7d 86 bd 70 bf 8a 3b
       0.052003104 0.014924825 -0.06566896 0.004234247
000330 e7 e6 02 3d 2e 91 20 bc 1f e0 78 3d b9 c7 5e bd
       0.031958487 -0.009800239 0.060760614 -0.05438969
000340 05 2a 16 3e 80 aa 41 3d c3 c6 12 3d 5e 2b 9b 3d
       0.14664467 0.047281742 0.035834085 0.07576631
000350 26 6c 2a 3c b3 1b 6a bd ab 52 5e 3d 84 d2 e5 3c
       0.010401761 -0.057155322 0.054278057 0.028054483
000360 ae d5 fb bc 96 48 8e 3d 04 35 bd 3d 01 d8 35 bc
       -0.030741539 0.069474384 0.092386276 -0.011098863
000370 36 6a 7b bd d7 aa 58 bd e3 e0 0a be 95 4c 94 3d
       -0.061380588 -0.0528973 -0.1356235 0.07241169
000380 ea 76 62 bc 80 49 aa bc 0c c5 0c bd 6a cc 5b 3d
       -0.013822297 -0.020787 -0.034367606 0.05366174
000390 8f 37 76 3d 86 e8 d3 3d fd 59 44 bd dd 77 8d b9
       0.06011158 0.10347085 -0.047937382 -0.0002698292
0003a0 91 49 97 bc 71 76 e9 ba ee 6f 81 3d 70 b0 c0 bd
       -0.018467696 -0.0017811788 0.06320177 -0.09408653
0003b0 e7 89 f0 bc 7d f3 a7 3c 64 07 a6 3d 34 c5 d2 3b
       -0.029362632 0.020501846 0.081068784 0.0064322
0003c0 a8 bb e6 3d d3 0e 2a bc 84 50 5a bd e1 e8 24 be
       0.11266261 -0.010379511 -0.053299442 -0.16104461
0003d0 8c f2 fa 3d a3 c3 85 3c 0d c4 eb 3c 38 0c 4f 3d
       0.122532934 0.016328638 0.028780008 0.050548762
0003e0 98 37 d1 bc 2b 77 91 bd bf c1 fe bc 6b b4 8b 3c
       -0.025539204 -0.071028076 -0.031098245 0.017053803
0003f0 34 b6 4b bd b4 d1 27 3e 17 eb 63 bd e2 41 20 3e
       -0.04973431 0.16388589 -0.05564412 0.15650132

fc2.bias f4 [128]
000000 78 b1 eb 3e 58 d1 2b bd 6e fc e5 be 5c 6c da bc
       0.46033835 -0.041947693 -0.4491915 -0.026662998
000010 71 99 d6 bd ab d4 67 3c b5 49 c8 bd 47 9d 23 3e
       -0.104784854 0.014149825 -0.097796835 0.15977965
000020 30 8e a2 bc f9 69 e5 bd 8c b6 c6 bc b1 f3 3f 3d
       -0.01984319 -0.11201853 -0.024256967 0.04686326
000030 71 fc 16 be 30 42 ac bc a0 6e ac bd 28 0a b4 3c
       -0.14744736 -0.021027654 -0.084195375 0.0219775
000040 34 d1 b5 3d 8e c7 64 be 45 76 cb bc 35 f1 9a 3d
       0.08877793 -0.22341749 -0.024836669 0.07565538
000050 ae 09 05 be ab 23 c1 3d 1f e5 c6 bb 85 38 91 3e
       -0.12991974 0.09430631 -0.006069794 0.28363433
000060 fc 78 26 bd 75 ed 80 3e 74 59 ed bd 6d 9e 92 3c
       -0.040642723 0.25181165 -0.115893275 0.017897809
000070 04 d1 14 be 47 69 84 3e bd 3f ac 3d ca 5b dc bd
       -0.14532858 0.2586157 0.084105946 -0.10759695
000080 91 f6 1a 3e 6c 80 1e be 90 ac 5c be e7 f7 7d 3e
       0.1513312 -0.15478677 -0.21550202 0.24801598
000090 c0 70 66 3b 73 5b 27 3d fe 4d 34 bd a5 33 34 bd
       0.003516242 0.040858697 -0.04401969 -0.043994565
0000a0 9e 21 25 bd 35 45 f8 bd 27 8a 35 bd 04 19 b2 3c
       -0.040315263 -0.12122575 -0.044321205 0.021740444
0000b0 88 0b cc bd 8c bd 1e 3d ae c2 a3 be 09 14 0a be
       -0.09963137 0.038754985 -0.31984466 -0.13484205
0000c0 e6 33 98 bd dc 0e 7c 3a cf 68 e1 bd 57 76 b6 be
       -0.07431774 0.00096152513 -0.11006319 -0.3563716
0000d0 1f 8c ed bd 28 0b 5c bd ed 27 c0 3e 8a 10 e4 bd
       -0.115989916 -0.053721577 0.3753046 -0.11135967
0000e0 62 a0 ec 3d 6d b9 b1 3d 4e 16 2c 3e 39 77 a5 3e
       0.11554028 0.08677945 0.16805384 0.32317522
0000f0 d0 a4 97 bd 70 56 91 3d ae 78 d8 3d 65 f9 69 be
       -0.07404482 0.07096565 0.10569893 -0.22849043
000100 ae 7d 94 bd d7 c0 e3 3d a6 b5 b3 3e 69 7c e6 3c
       -0.07250534 0.11120766 0.35099524 0.028135495
000110 9e 7d 98 be 92 e5 8a bd f4 ab 90 3d 8c cf ca 3d
       -0.29783338 -0.06782068 0.070640475 0.09902868
000120 57 e7 c0 bd 7c 1a 20 bd 83 b9 13 be 2e 2b ab bd
       -0.094191246 -0.039087757 -0.14426236 -0.08357845
000130 d9 48 ae 3d d7 83 fc bd e6 ed a6 bd 79 d7 46 bd
       0.08509988 -0.12329834 -0.08150844 -0.048545334
000140 c6 49 a9 bd 10 f4 10 3d 1f e9 77 bd bd 60 c0 bd
       -0.08266024 0.035389006 -0.060525056 -0.09393451
000150 10 96 79 3d 33 e6 5c bd 30 3a f6 3d 11 20 be bd
       0.060934126 -0.053930473 0.12022817 -0.0928346
000160 01 4b 38 3d d7 ec c8 bd ef 92 9d 3d a7 12 6c bd
       0.044993404 -0.098107986 0.07694041 -0.057634976
000170 a0 7b aa bd 6d 33 4f bd d5 a9 1f 3e d9 3a ca bd
       -0.08324361 -0.050586153 0.1559213 -0.098745055
000180 29 de c0 bd b2 80 46 3d 96 72 b6 3d a7 ab 95 3e
       -0.09417374 0.048462577 0.08908574 0.29232523
000190 c1 cc af 3e fe 03 a6 bd c6 33 54 3c 6a 35 0e 3e
       0.34335902 -0.0810623 0.012951797 0.13887563
0001a0 ad b1 10 be 31 e5 e4 3d e2 51 28 bc 61 a1 18 bc
       -0.14130278 0.11176527 -0.010273429 -0.0093158195
0001b0 bd 11 44 bd f5 e8 0b bd 18 d3 cb be 24 59 e5 be
       -0.04786848 -0.034157712 -0.3980949 -0.4479457
0001c0 c3 52 c2 3d 96 a1 cf 3e 91 d5 8c 3e 61 b1 dd 3d
       0.09488442 0.40552968 0.27506688 0.10824848
0001d0 26 f7 49 be b8 71 b9 bd 3c 58 84 3d 5d bb 17 3d
       -0.19723186 -0.09054893 0.06462142 0.037043918
0001e0 03 b0 60 3e e5 57 ae 3e d6 2c ed bd 49 d0 39 bd
       0.21942143 0.34051433 -0.115808174 -0.04536465
0001f0 42 7e da bd 6e 51 98 3c e6 91 d1 be 2a 59 db be
       -0.10668613 0.018593516 -0.40931624 -0.42841464

fc3.weight f4 [5, 128]
000000 7b 60 9c 3c 15 d3 5f bd 51 b3 3a bd 0d 0e c1 3d
       0.019088974 -0.054644663 -0.045581166 0.09426508
000010 0b 71 59 3d f5 3f 77 3d c5 83 2a bd d9 69 76 3d
       0.05308632 0.06036373 -0.04162957 0.060159538
000020 1a 62 69 bd f1 e9 b6 bd 15 e4 95 bd 27 56 86 3d
       -0.056978323 -0.089313395 -0.07318894 0.06559401
000030 56 0c 9b bd 90 a8 97 bc 9a d3 9a 3d 65 1e d4 3c
       -0.07570712 -0.018512994 0.07559891 0.0258934
000040 c3 7c cd 3c ff 4e 1a 3d ec d1 4e 3d cf ea 4e 3d
       0.025083905 0.037672993 0.050493166 0.0505169
000050 3b ff a3 bd e5 7e 3d bd 33 5c 7c bd 9d 43 67 bc
       -0.08007666 -0.046263594 -0.061611366 -0.014115241
000060 87 93 61 bd b5 c0 34 3d 32 66 d0 3c 8b 14 0b 3d
       -0.055072334 0.044129092 0.025439356 0.03395514
000070 93 ed 6a bd d5 85 60 3d 24 37 5d 3d f0 3b f5 bc
       -0.057355475 0.054815132 0.054007664 -0.029935807
000080 f3 40 a3 3d 68 b6 8a bd 84 8c ba bc 4c 12 00 3d
       0.079713725 -0.067730725 -0.022772081 0.03126745
000090 4d c8 8d 3d 5f c4 38 3d 9f e4 0f bd 7f 4d e5 bc
       0.0692297 0.04510915 -0.03513014 -0.027991055
0000a0 11 c4 0e 3c e3 d0 be 3c 34 f2 d4 3d a1 b8 85 3d
       0.008713738 0.023292964 0.10397759 0.06529356
0000b0 11 97 c0 bd 43 a3 74 bb fe d8 87 bc 6e 87 47 3d
       -0.09403814 -0.0037328757 -0.016582962 0.04871314
0000c0 f5 1c 4f bd ca 0b a2 bd 3f a7 a4 bd ed c4 5e bd
       -0.050564725 -0.07912405 -0.08039712 -0.05438702
0000d0 e2 00 93 bd be 8c fb bc c5 7f 99 3d 89 58 73 bd
       -0.07177903 -0.03070676 0.07495073 -0.059410606
0000e0 74 2a 8a bd 94 c5 a7 bd 0d 32 ef 3c 15 04 2a 3d
       -0.067463785 -0.08191982 0.02919867 0.0415078
0000f0 b6 e8 8a 3d 90 38 98 3d b3 90 a1 bd 82 f1 a0 bd
       0.06782667 0.074326634 -0.07888927 -0.07858564
000100 75 4b 3d bd 94 bd 53 3d ad 5f 70 3d de 47 cf bd
       -0.04621454 0.051694468 0.058684994 -0.101211295
000110 53 62 65 bd 1f 37 a6 bc 36 03 92 3d 4f 83 ac bd
       -0.056001972 -0.020289956 0.07129519 -0.084234826
000120 78 54 6d bd dd 56 9a bd 17 5d de 3b e8 80 3a 3d
       -0.057941884 -0.07536099 0.0067859995 0.04553309
000130 51 c3 fb 3c d2 1d 37 3d 20 ec 21 bd dd 5e d0 bd
       0.030732783 0.044706173 -0.039531827 -0.10174344
000140 f1 c2 a2 bd 6f ef 11 3d 52 1b b1 3d f8 f1 9a bd
       -0.07947338 0.035628732 0.08647789 -0.07565683
000150 68 3f 21 bd 06 a6 8b 3c 59 b1 a8 bd 98 24 57 3d
       -0.03936711 0.01704694 -0.082369514 0.052525133
000160 55 de 55 bc ea 93 58 bd e5 59 87 3d 4e 3c 4b 3d
       -0.013053496 -0.052875437 0.06608943 0.049618058
000170 91 eb ae bd 99 e3 9f 3d bd da 1f 3d 8c da a1 bd
       -0.085410245 0.07807083 0.039026964 -0.07903013
000180 8b e0 fb bc 08 27 bc 3d ed a8 dd 3d 66 08 e1 3d
       -0.030746719 0.09187132 0.10823236 0.1098793
000190 c1 62 b6 3c 43 23 be 3d d6 c4 7b bd f8 b0 13 3c
       0.022263886 0.092840694 -0.061467014 0.009014361
0001a0 da 96 5a bd 2f d4 ab 3d 0a ca 9a bd 1d a6 83 bd
       -0.05336652 0.0839008 -0.07558067 -0.06428168
0001b0 de f6 85 3d d4 24 0e bd 8b 60 90 bd e9 23 4d bd
       0.06541227 -0.03470309 -0.07049664 -0.050083075
0001c0 df 27 b8 3d ab 31 4b 3d a7 9a b4 3d 83 6e a1 3d
       0.0899198 0.049607914 0.0881856 0.078824066
0001d0 e5 bf 56 3d 26 cc 8b 3d 5b 93 39 3d 77 2f 60 3d
       0.0524291 0.068260476 0.045306545 0.054732766
0001e0 fa a5 40 3d f5 f0 96 3d 0a af f6 bd f7 03 3f 3d
       0.047033288 0.07370178 -0.12045105 0.04663464
0001f0 3f 56 cf bd e0 54 0c 3c 3a 12 bf bd 34 51 42 3c
       -0.10123872 0.008565158 -0.09329648 0.011860181
000200 97 f9 2f 3d f3 34 b1 3d 0d 7e 9f bd db a1 87 bc
       0.042962637 0.086526774 -0.07787714 -0.01655667
000210 6b 9d 97 bd 21 9a 8b bd 3f 17 fb 3d c8 54 00 3e
       -0.07403072 -0.06816507 0.12260293 0.12532341
000220 ae e3 72 3d 6c 14 bb 3d 45 fa 64 bc 05 91 a5 3d
       0.059299164 0.091347545 -0.0139756845 0.08084301
000230 1c 41 83 3d 4b 33 ba 3d c1 4f 05 bd 9c 21 be bd
       0.06408903 0.090918146 -0.032546762 -0.09283754
000240 90 e4 27 3d 01 fd 96 bd 92 99 71 bd 95 08 78 bd
       0.04098946 -0.073724754 -0.058984347 -0.06055506
000250 e9 a0 e3 3d a0 54 9c 3d 0c 2c 63 3d cd 79 92 be
       0.111146756 0.076333284 0.05546193 -0.28608552
000260 d8 1d 36 bd fa ef 49 be 0a a5 98 bd e5 5b 62 3d
       -0.044462055 -0.1972045 -0.07453354 0.05526342
000270 d5 fa ae bd e5 d8 b3 3d 28 38 a6 3d 97 ab fb 3d
       -0.08543936 0.08781604 0.0811618 0.122885875
000280 55 b2 b9 bd f4 fb e9 3d 50 dc 33 bd e3 92 6a be
       -0.09067217 0.11425009 -0.04391128 -0.22907595
000290 8c 2d 51 bd 0b 17 e3 bc 03 65 b4 3d e4 e8 e6 3d
       -0.051068828 -0.027720949 0.08808329 0.11274889
0002a0 1f f5 08 3e 1f d9 cf bd 70 e7 f0 bc 01 bd b6 bd
       0.13374756 -0.101488344 -0.029407233 -0.089227684
0002b0 89 b9 65 3d 42 f9 e7 3d f6 99 6f 3e d2 a8 6c bd
       0.056085143 0.11326839 0.23398575 -0.057778187
0002c0 e6 49 07 3e af fd a0 bc d9 f3 a9 3d 15 a8 72 3e
       0.13211784 -0.019652216 0.082984634 0.2369693
0002d0 41 07 c5 3d 19 84 b2 3d 44 a4 b0 3d 0f c8 d2 bd
       0.09620524 0.08716602 0.08625081 -0.102920644
0002e0 97 32 49 3d 3e 69 12 3d 86 71 cf 3d 47 1e 85 be
       0.04912051 0.035744898 0.10129075 -0.25999662
0002f0 c9 3d 26 bd cc 5a 99 bd 39 19 22 3d ac 87 3e 3e
       -0.040586267 -0.07488021 0.039574835 0.18606442
000300 36 f1 4a bd d8 6f 0c be 70 12 8c 3d de fa d4 3c
       -0.049546443 -0.1371454 0.06839454 0.025998529
000310 71 62 83 3e 4a 8e d7 3d e5 0d 36 bd fc db ee 3b
       0.25661042 0.10525186 -0.044446845 0.007289408
000320 4b 62 fe 3d 55 36 97 3c 39 37 22 3e e3 85 a4 bd
       0.12421092 0.018458525 0.15841378 -0.08033349
000330 5a 6b cb bd d7 78 8b bd fc b7 f9 3d 0e e8 f7 bd
       -0.09932585 -0.06810158 0.12193295 -0.12104808
000340 14 57 29 3d 4b 47 cb bd 20 d4 66 3d a3 d4 a7 3d
       0.04134281 -0.099257074 0.056354642 0.08194854
000350 87 80 9c 3d a7 88 d6 bd 2e 23 bb 3c 80 b5 95 bd
       0.07641702 -0.10475283 0.022843923 -0.07310009
000360 7e c4 e0 3d 68 25 9a bd 3c a5 88 bd 6b 9b a9 bd
       0.10974978 -0.07526666 -0.06672141 -0.08281597
000370 6e 33 0c 3d 83 25 6c bd a0 ae 7f 3d 4e 4c b0 3d
       0.034228735 -0.05765296 0.062422395 0.08608304
000380 7b 51 17 3e fb b1 5b bd 1b d9 66 bd 1c b9 41 be
       0.14777176 -0.053636532 -0.05635939 -0.1891827
000390 49 9f 8a be e4 68 e8 ba c8 f8 51 bc d9 3d 1c be
       -0.2707465 -0.0017731455 -0.012815662 -0.15257968
0003a0 15 2e c9 3d 21 9f df bd 08 fa d0 bd 1d 67 66 3d
       0.098232426 -0.10919023 -0.1020394 0.05625068
0003b0 2d b9 50 bd d7 6d f2 3d 19 d6 8c bd 1d f2 7a bd
       -0.050957847 0.118373565 -0.068767734 -0.061266053
0003c0 cb 81 88 bd 53 9e 25 3d b1 b2 68 be 83 4f ad bd
       -0.06665381 0.040434193 -0.22724415 -0.08462431
0003d0 43 e4 36 bd 28 0d 42 bd 11 df d8 bd f6 08 71 3d
       -0.04465128 -0.047375828 -0.105894215 0.058846436
0003e0 eb 1a 71 be ff ee 7b be 01 e7 32 3d 9a ae 19 3c
       -0.23545425 -0.24602889 0.043677334 0.009380007
0003f0 be 39 6e 3d ef 50 d3 bd 59 b0 da bd 46 ab 05 3a
       0.058160536 -0.10318171 -0.10678167 0.0005099069

fc3.bias f4 [5]
000000 6b cb 18 3e 44 fd af be e6 3a 2c bf 92 f2 a6 3e
       0.14921348 -0.34372914 -0.6727737 0.3260694
000010 7f 4b ec 3e
       0.4615135
