examples/predict/epoch_30000/classifierFC_epoch_10000.pth (torch, 137055 bytes, 6 tensors)

fc1.weight f4 [128, 128]
000000 3a 0f 90 3d bc 5f 05 3d 67 7f 57 3b 3f 65 30 bd
       0.07034154 0.032562003 0.0032882334 -0.043065306
000010 ca aa fd bd 8b e1 1b bb 73 02 c2 3d f8 ee ca bc
       -0.12386091 -0.0023785557 0.094731234 -0.024772152
000020 29 6a 5a bd 42 e4 a2 bd b7 77 d4 bd d1 82 60 3e
       -0.0533239 -0.07953693 -0.10374396 0.21924902
000030 b5 f4 70 3d 96 2f 60 3d bc fc 4d bd 52 5d 9b 3d
       0.05882712 0.05473288 -0.050289854 0.07586159
000040 83 95 6e bd 93 8d bd 39 8e 65 a7 bd a5 b8 fc bc
       -0.058248054 0.0003615437 -0.08173667 -0.030849764
000050 3e b2 ee bd 90 f8 3c bd 2e 61 e2 bb c7 5f 72 bd
       -0.11655091 -0.046135485 -0.0069085574 -0.05917337
000060 e1 3d e9 bc fd 64 46 bd 56 0e 4a bd 48 1c 31 bd
       -0.028471889 -0.048436154 -0.049330078 -0.04323986
000070 f0 85 82 3d 9f 0f b3 3d be 2a 50 bc 31 2e f0 3c
       0.06373203 0.08743214 -0.012705503 0.0293189
000080 18 ed 63 bc 29 fd f6 bc 4c d1 d9 3d 2c bd 23 bd
       -0.013911508 -0.030150013 0.10635623 -0.03997533
000090 39 5d 05 bd 73 7d 99 bd 5c 79 28 bd 24 63 7e bd
       -0.032559607 -0.07494631 -0.041131362 -0.062106267
0000a0 0c 61 00 bb 2f 58 4a 3c d9 55 40 be d8 c6 fb bd
       -0.0019589094 0.012350126 -0.18782748 -0.12293786
0000b0 7b d3 8c 3d 2c 0c 87 bd 65 1f 6c 3c 1d 6a e3 3c
       0.06876274 -0.065941185 0.014411782 0.02776056
0000c0 be 62 9f bd 10 31 7c bd 7f fb 60 bc ef ed df bd
       -0.077825055 -0.061570227 -0.013731836 -0.10934054
0000d0 d3 73 99 bd 88 37 41 be e7 d9 d5 bd d5 50 eb bb
       -0.07492795 -0.1886884 -0.10441952 -0.007181267
0000e0 d9 66 6e 3d e1 cf 28 be c4 ec 74 bc 99 92 db 3d
       0.058203552 -0.1648555 -0.014949027 0.10721321
0000f0 d7 8a cf 3d 13 04 ba 3d 07 18 93 3c 03 eb 8e 3b
       0.101339035 0.09082808 0.017955793 0.0043615117
000100 26 ec 36 3e 11 af 0d bc e0 b4 15 be e5 42 88 bd
       0.17863521 -0.008647696 -0.1461978 -0.06653384
000110 da 07 de bd 80 58 0d 3d d9 63 2f bd 66 ea b0 bb
       -0.10841341 0.03450823 -0.04281983 -0.005399036
000120 ce a6 19 3d 3c 23 ba bd 48 78 99 3d 4c 30 44 3c
       0.037512593 -0.09088752 0.07493645 0.0119744055
000130 5f 6d 97 3d 17 57 dc 3d 1f 5f 0b be ad 87 a6 bd
       0.07393908 0.107587986 -0.13610505 -0.08131347
000140 61 2d 62 3c 75 c2 87 bd 67 5d 24 bc e5 fb 27 bc
       0.0138047645 -0.066288866 -0.0100320345 -0.010252927
000150 cf 53 bc bc 79 df 62 bd 0f 52 3d bd e1 9a 39 3d
       -0.022989182 -0.0553889 -0.046220835 0.04531372
000160 d0 8b f2 3c 74 9d e3 bd 64 0f a2 3d 9d 4b 68 3c
       0.029607683 -0.11114016 0.07913092 0.014178184
000170 fc 27 36 be 79 6c 04 be fb 6e f0 3d 1a a0 40 bd
       -0.1778869 -0.12932004 0.11739918 -0.047027685
000180 cc d8 3d 3e a7 30 db 3d 17 6d 29 3c cb e7 06 bd
       0.18539733 0.10702639 0.01034095 -0.0329359
000190 4b dc 9e be e0 dc e2 bd 97 94 a3 bd 81 70 18 3e
       -0.31027445 -0.11077285 -0.07987326 0.14886667
0001a0 c2 21 a5 bd 4b f5 a2 bd c3 b5 a2 bd c7 d4 05 bd
       -0.080630794 -0.07956942 -0.079448245 -0.032673623
0001b0 d7 35 9d bd 61 c3 d6 3d ce 31 85 3d 12 83 aa bc
       -0.07676285 0.10486484 0.0650364 -0.020814452
0001c0 3b 39 41 bd 03 94 6e 3d c9 80 02 3c 93 18 71 bd
       -0.04717372 0.058246624 0.007965275 -0.058861326
0001d0 60 91 b9 3b b7 5b 12 3e 7b a4 38 bd c8 11 87 bc
       0.005663082 0.14292799 -0.045078736 -0.016487971
0001e0 d7 40 71 be a7 e2 c7 bc c8 ac 09 3e 23 c5 04 3e
       -0.2355989 -0.024400068 0.13444817 0.12965827
0001f0 5a 26 54 bd 64 2f ba 3d fd 28 84 bd e5 9e f0 bd
       -0.051794387 0.0909107 -0.064531304 -0.11749057
000200 f7 f9 63 3e 42 03 3b 3d 1f e9 20 bd b0 3f 91 bb
       0.22263323 0.045657404 -0.03928482 -0.004432641
000210 13 df 2d be 85 20 fe ba c7 df 4e 3e fa 6a dc bb
       -0.16979627 -0.0019388354 0.20202552 -0.00672662
000220 27 df b4 3d 7e 53 b9 3d 75 90 8c bd ae da ab 3d
       0.088316254 0.09049128 -0.068634905 0.08391319
000230 23 c8 ac bd 8e 15 26 3c aa a7 ec 3c d5 dd 5e 3d
       -0.084366105 0.010136975 0.028888542 0.054410774
000240 b1 da d8 bd 4c 6b 05 3e 40 39 52 bd 1e 32 c8 3d
       -0.10588587 0.13029212 -0.05132413 0.09775184
000250 2e 33 6f bd bc 96 38 3d 91 ea bb 3d 32 63 37 3e
       -0.058398418 0.045065627 0.09175599 0.17908934
000260 0e ee 69 bc 2e 42 2e be e2 45 1f 3d 17 bf 08 bd
       -0.014277948 -0.17017433 0.038885005 -0.033385362
000270 d5 3a d1 3d 99 f9 d5 3d d5 e6 e1 3d 47 ea fe 3c
       0.102162994 0.104479976 0.11030356 0.031117572
000280 94 c0 fd bc 58 7f 03 3d 63 1c a7 bd bb 2e 5c bd
       -0.030975617 0.032103866 -0.08159711 -0.053755503
000290 c0 35 72 bc 5e 6e 87 3d b7 8a cc 3d 4d 83 aa bd
       -0.014783323 0.06612848 0.09987395 -0.08325825
0002a0 41 2e 48 bd 15 50 60 3d 95 41 f4 3d e2 f1 05 be
       -0.048872236 0.054763872 0.11926571 -0.13080552
0002b0 08 d8 74 3d 7a 97 7a 3c 03 8e c1 3d ca 55 5a 3b
       0.059776336 0.015294904 0.09450915 0.0033315294
0002c0 fb 0b be 3b f7 13 a2 3c 1a c9 b8 3d 01 06 58 3d
       0.005799768 0.01978491 0.09022732 0.0527401
0002d0 fa 41 d1 3d 26 20 02 be 0f 34 c8 3b 7d ca 4e 3d
       0.10217662 -0.12707576 0.0061097215 0.050486077
0002e0 7a 02 a3 3d 7d 40 ff bd ef 3e 1a 3c e7 45 08 3d
       0.07959457 -0.12463472 0.009414419 0.03326979
0002f0 ae ab 4e 3d ba c1 94 bd 5e 4c 49 3d cb a1 0f 3d
       0.050456695 -0.07263513 0.049145095 0.035066407
000300 0c 65 f2 bb 3c 49 ba bd ef de 17 bc d1 ff 14 3b
       -0.0073972996 -0.090959996 -0.00926946 0.0022735486
000310 80 58 e7 bd c0 7a a2 3d 4e c9 33 bd 28 fe 2d 3e
       -0.11296177 0.07933569 -0.04389315 0.16991484
000320 f4 25 e1 bc fc 1d 3f 3e 8a b3 19 bd b5 8c 1d be
       -0.027483918 0.18663782 -0.037524737 -0.15385707
000330 78 ca bd 3d 83 17 cd 3c 71 86 fd 3d 93 38 5a bd
       0.092671335 0.025035625 0.12379158 -0.05327661
000340 31 72 01 3d 0d 0f 1c bd 51 05 1e be e6 ab af 3d
       0.031603042 -0.03810029 -0.15431716 0.08577709
000350 46 6d 02 3d c0 44 8d bd e3 a4 b8 bd fc db ea 3c
       0.031842493 -0.06897879 -0.09015825 0.02866935
000360 a0 97 cd 3c 91 ac 35 3c a4 aa 55 3d d1 63 9c bc
       0.025096714 0.011088506 0.05216469 -0.019090565
000370 f3 23 b3 bd 03 57 34 3d 90 78 0c bd a0 c9 80 3c
       -0.08747091 0.044028293 -0.034294665 0.015721142
000380 bc 5d a3 bd ff 27 5d bc 4e f3 9d bc 33 6c 84 bc
       -0.07976863 -0.013498305 -0.019281056 -0.016164875
000390 78 ad 96 3c 98 b2 13 bc 0d 55 55 3d 10 bd 2e 3c
       0.018393263 -0.009014748 0.052083064 0.010665193
0003a0 b5 d3 16 3d 11 27 4d bd 94 8e d9 3b 99 0b c5 bc
       0.036822993 -0.050086085 0.006639311 -0.024053382
0003b0 7a 82 48 3b ab ae f7 3d 1b 95 ca bc 49 ac 11 be
       0.0030595348 0.12093862 -0.024729302 -0.14225878
0003c0 5d b7 d5 bd 0c 22 04 be 74 19 df bd ff f9 55 bd
       -0.104353644 -0.12903613 -0.10893527 -0.052240368
0003d0 bd 9b 89 3d 37 db 7d 3d 48 f1 c8 bd c4 6b bc 3c
       0.06719158 0.061976638 -0.09811646 0.023000605
0003e0 0c 09 16 bd 7d e8 a8 bb 1d 91 3f bd b4 5c c7 3d
       -0.03662972 -0.005154668 -0.04676925 0.097344786
0003f0 20 9f c3 3b ea 74 b6 3d 4c 3f de bc 2e 3c 2c bd
       0.005969897 0.08909018 -0.027129792 -0.04204958

fc1.bias f4 [128]
000000 dc 22 2c 3d d7 bb 27 3d b9 87 c0 bd 1a 2c c9 bd
       0.042025432 0.040950622 -0.09400887 -0.09822865
000010 d7 a2 69 3b d4 c1 e5 bc 48 3f 14 be c9 72 94 bd
       0.0035650039 -0.028046526 -0.14477265 -0.07248456
000020 d2 de b0 bc 6e e5 26 3c ba 02 45 3d 2b 29 4d 3d
       -0.021590624 0.010186536 0.048098303 0.05008809
000030 ca 29 e3 bc 56 d1 88 bd ea 02 71 bd 1a 14 cd 3c
       -0.027729888 -0.06680553 -0.05884067 0.025034
000040 dc cd 93 bc 5b 13 1d 3d bc 4b 27 bd 40 c4 8c 3d
       -0.018042497 0.038348537 -0.04084371 0.06873369
000050 06 98 25 3c ab d6 81 3d bf 26 a8 3d e0 bb 5b 3c
       0.010107046 0.06339773 0.08210515 0.013411492
000060 11 c1 01 be 29 33 8f bb 8e 68 ce 3d 4d d0 de 3c
       -0.12671305 -0.0043701124 0.10078536 0.027198935
000070 76 6c be 3d dc 31 2c bd 0a 79 02 3d 33 16 c3 bc
       0.09298031 -0.042039737 0.031853713 -0.023814296
000080 3e bc f0 bd 86 45 c5 bd 1e 59 99 3d 16 da 02 3d
       -0.11754654 -0.09632401 0.07487701 0.031946264
000090 c3 1a 9f bd 01 68 c4 bd 4f 98 95 3c 65 c3 a6 bd
       -0.07768776 -0.0959015 0.018261103 -0.08142737
0000a0 0d ed 18 bd 7a 62 bd bc 93 37 5c bd c8 74 cd 3c
       -0.037335444 -0.023118246 -0.053763937 0.0250801
0000b0 8c 5a 6c 3d 95 2e 7a bd 0a 86 59 bd 4d 91 4b 3b
       0.05770354 -0.06107958 -0.053106345 0.0031061948
0000c0 f9 47 1b bd a7 75 40 3d 42 e1 58 3d f1 20 21 3d
       -0.037910435 0.046987202 0.052949198 0.039338056
0000d0 39 80 65 bd 7e c0 19 bd a9 94 d6 bc 15 05 31 3b
       -0.056030486 -0.03753709 -0.026193934 0.0027011086
0000e0 91 03 cb bd fa 8a b0 3c dd dd fe 3b 67 6e 0e bd
       -0.099127896 0.021550644 0.007777913 -0.034773257
0000f0 01 d1 8e bd e2 90 c0 3d 57 8c ae bd 9f 01 16 bc
       -0.06973458 0.09402634 -0.085228615 -0.00915566
000100 c4 84 af 3c 3c ac 8b 3d 9c 02 a6 bd 64 56 34 3c
       0.021425612 0.068199605 -0.081059664 0.011006925
000110 ba bb 22 bd 31 44 17 3d 53 d4 c7 3b a6 f0 7a 3c
       -0.03972981 0.036930267 0.006098309 0.015316164
000120 27 d3 58 bd cd 00 a7 3d 42 77 b2 3d cf 4b d5 bc
       -0.052935746 0.081544496 0.08714153 -0.026037125
000130 6c 2a ae 3d 16 94 36 bb 92 2b 42 3d 5d aa 19 bd
       0.08504185 -0.0027859262 0.047404833 -0.037515987
000140 37 77 48 3d 15 82 25 3d 4a 89 36 bd 21 20 de 3d
       0.048941817 0.04040726 -0.044564523 0.10845972
000150 03 e2 1b bd 07 63 19 3d e2 10 79 3a 88 e1 88 bd
       -0.03805734 0.037447955 0.0009501112 -0.06683642
000160 41 35 e7 3c 05 2b 68 3d 17 37 6e 3d 0d 2e 4e bc
       0.028223636 0.05668165 0.058158007 -0.012584222
000170 f0 b7 95 bd 90 f0 0b 3e 3f d9 d3 3c 40 04 31 3d
       -0.07310474 0.13665986 0.025860427 0.043216944
000180 b2 9c 12 be 6b 7c db bc 17 a4 d3 bd d4 6b 45 bd
       -0.14317587 -0.026792726 -0.10334032 -0.048198536
000190 25 c8 72 bd 18 31 ba bd 8c 21 85 bb db 36 11 3e
       -0.059272904 -0.09091395 -0.004062837 0.14181082
0001a0 2c f0 a1 bd 14 4f 74 bd 26 68 03 bd e5 86 91 bc
       -0.07907137 -0.059645727 -0.032081746 -0.017764518
0001b0 07 ca 89 bd 68 06 e4 3c 9b ad 7d 3d 60 b5 0b bc
       -0.06727987 0.027835086 0.06193314 -0.00852713
0001c0 69 f3 81 bc 17 12 6a 3b 68 d1 8a bd f9 83 38 3d
       -0.015863137 0.0035716349 -0.06778222 0.045047734
0001d0 68 6c 2d bd f6 35 98 bd 2c b0 c5 3c cc 2d 0c 3e
       -0.042339712 -0.07432167 0.024131857 0.13689345
0001e0 6b 1d b9 3d 5e 6b 18 bd 99 56 35 3b 9a 9c b1 3d
       0.09038814 -0.03721177 0.0027670024 0.086724475
0001f0 ea 9f 4c 3a eb 01 03 3d 91 41 01 bd f1 02 26 3c
       0.00078058115 0.03198425 -0.03155667 0.010132537

fc2.weight f4 [128, 128]
000000 f7 7a b1 ba fe 47 3a 3b 0b 5d ab 3b c9 e4 8a bd
       -0.0013540675 0.0028424258 0.0052295974 -0.067819186
000010 97 6e db 3c 58 f2 1c 3e 08 46 35 3d 4d 7a 3c 3d
       0.026786132 0.15326822 0.04425624 0.046015073
000020 9a 21 28 bc ce 09 f0 3c 12 b6 9e bc e8 f6 11 bd
       -0.0102619175 0.02930155 -0.019373927 -0.03563586
000030 f5 55 74 3e 22 65 50 bd 00 2c ba bd d6 50 16 ba
       0.23860915 -0.050877698 -0.090904236 -0.00057340914
000040 0f 07 86 3d e9 0f 9e 3d b3 e7 a4 3b 98 04 1f 3d
       0.06544315 0.07717878 0.0050325035 0.03882274
000050 9f 5f b2 3c 05 18 a8 3d b5 57 b4 bc 91 f0 76 be
       0.021774111 0.08207706 -0.022014478 -0.24115206
000060 fe 48 29 bd cd fb 20 3e cc 8e 32 3d 8b b5 b8 3d
       -0.041329376 0.15721054 0.043593213 0.090190016
000070 0c 10 05 bd 7b 67 c2 3c ad d3 b9 3d ad 51 b9 bc
       -0.032486007 0.023730984 0.09073577 -0.022621954
000080 e5 83 c2 3b a1 0b b4 bd 76 e3 46 bc 47 47 46 bd
       0.005936133 -0.087912805 -0.012139192 -0.04840782
000090 ef 7d ae bb 5c 06 7b 3d 38 cc 8e bd 8c b3 92 ba
       -0.005325071 0.06128536 -0.069725454 -0.0011192425
0000a0 9d 3c 15 be ee 82 33 bd 03 c5 27 bd f4 53 87 bd
       -0.14573903 -0.043826036 -0.04095937 -0.0660781
0000b0 16 0c 80 bd a6 da 84 bc 32 48 c9 3d 25 7f 4a 3c
       -0.06252305 -0.016217541 0.09828223 0.012359415
0000c0 6c b5 24 3d 60 58 49 3c 67 7d 06 3d f5 5e 4a be
       0.04021208 0.012289137 0.032834437 -0.19762786
0000d0 f1 89 c4 bc fa 4d ab 3b 5b b8 a9 bd e3 ef f5 bd
       -0.023991557 0.0052278014 -0.08287116 -0.120086454
0000e0 38 b0 60 3c ba a4 25 3c 06 8f 54 be 51 2c ac bc
       0.013713889 0.010110075 -0.20757684 -0.021017225
0000f0 49 02 5a 3d ae 39 a1 bd a3 0f 2f bd 1d 5d 80 3d
       0.053224836 -0.0787233 -0.04273952 0.0626776
000100 c4 31 d8 3d 47 4a ff 3d 18 09 7c 3c ed 2b 85 3b
       0.10556367 0.12465339 0.0153830275 0.0040640743
000110 06 6b a1 bc 3c be 84 3d 20 68 83 bc 54 04 27 3d
       -0.019704353 0.06481597 -0.016040862 0.040775612
000120 b0 e9 0d 3c 92 17 60 bc 9a 5f 13 3b 81 17 98 bc
       0.0086616725 -0.013677495 0.0022487403 -0.018565895
000130 6d ae e4 bb 06 23 48 3d db db 64 3d 38 a0 b3 bc
       -0.006978801 0.048861526 0.055873733 -0.021926984
000140 66 b8 f4 bc 5a 9a b4 bc 29 32 7b 3d 13 53 b3 bc
       -0.029873084 -0.022046257 0.061327133 -0.021890199
000150 2f 29 28 3d d1 4f f3 3c d7 6c e5 bd 54 a7 6f bd
       0.0410549 0.029701145 -0.112024 -0.058509186
000160 e7 53 2c bc b9 b8 83 3e 61 6d d0 3a 43 3d bb 3d
       -0.010518051 0.2572687 0.0015901738 0.09142544
000170 0e 84 16 3d 75 70 bf 3d c6 cc 1d be fc b7 31 be
       0.03674703 0.09347621 -0.15410146 -0.1735534
000180 66 d5 5f 3c c4 43 d8 bc e6 d2 4f bd 5b 20 2f bc
       0.013661718 -0.0263995 -0.050738238 -0.0106888665
000190 a5 30 55 bc 0a 8f 76 be e7 46 99 bd 8d 77 c0 3b
       -0.013012086 -0.24078003 -0.07484227 0.0058736266
0001a0 7c d0 56 3d 0d 99 21 bc bb 5c aa bb 50 00 22 be
       0.05244492 -0.00986315 -0.0051990426 -0.15820432
0001b0 10 45 b8 bd 46 86 93 3d 8c 27 c0 3b 5a b1 0f be
       -0.089975476 0.07203345 0.0058640894 -0.14032498
0001c0 86 a8 09 be 88 b3 1a bd ef f5 10 be c2 fb e7 bb
       -0.13443193 -0.03776887 -0.14156316 -0.0070795724
0001d0 60 8d 24 bd 33 cb 13 bd 62 53 0c 3d f1 26 91 bb
       -0.04017389 -0.036082458 0.034259208 -0.004429691
0001e0 ff fc 9f 3d d5 02 52 bc 1a bd 40 bc 18 e0 ab ba
       0.07811927 -0.012818058 -0.011763835 -0.001311305
0001f0 c4 7c 22 3e de 99 86 3c 6e ae da 3c 10 d2 32 bd
       0.15867907 0.016430791 0.026694503 -0.043657362
000200 bd a9 92 bc 4d 1e 58 bc 35 81 da 3c fc 95 90 3d
       -0.017903203 -0.013190818 0.026672939 0.07059857
000210 12 64 52 3d 18 40 e7 bd cd 1e 4e bc 30 07 8d bc
       0.051364966 -0.11291522 -0.012580586 -0.017215341
000220 3e 1a 2f 3d 33 fe b0 bc d0 38 f4 bb 19 4c bf 3b
       0.042749636 -0.021605587 -0.0074530616 0.005837929
000230 51 1a fe bd ca c1 a3 3d 8c c4 20 3e 97 18 2c bc
       -0.12407363 0.07995947 0.15699977 -0.01050391
000240 00 1b ab 3d 2e 3f 28 be 2d 79 14 bd 7c 8a 38 bd
       0.08354759 -0.16430351 -0.036248375 -0.045053944
000250 ce 30 86 bc db 3a 66 bc 74 cf 9c 3d 8f b5 06 3e
       -0.016380694 -0.014052118 0.07656756 0.13155197
000260 84 bf 19 3d 04 76 1a be cf 0d 06 bd 2d 3f 0d bd
       0.03753616 -0.15084082 -0.032728013 -0.034484077
000270 ba 6e b2 3c 39 67 8a 3d 46 81 9b bc 08 71 de 3c
       0.021781314 0.067579694 -0.01898254 0.027153507
000280 8f 1e 39 3c 0a c8 b2 3d 91 d1 9a bd 86 0e e5 bc
       0.01129879 0.08729561 -0.07559503 -0.027961027
000290 51 16 0b 3d 53 ae 27 bd 4d e7 2e bd 65 e1 43 3e
       0.03395683 -0.040937733 -0.042701054 0.1912895
0002a0 7c 8f 1e 3d b8 22 47 bd 23 8e bf 3d 1d 7e 21 bd
       0.038711056 -0.048617095 0.09353282 -0.03942691
0002b0 79 39 0b 3e 74 5d 1e 3e cb 21 08 be 97 50 5a 3d
       0.13596143 0.15465337 -0.13294141 0.053299513
0002c0 df e3 1a be 33 be 99 bc 70 2f 6c bd 1e 54 96 3d
       -0.15125988 -0.018767452 -0.057662427 0.07340263
0002d0 c0 08 97 3b 39 6c c2 bc 89 84 84 bc 10 bb cf 3d
       0.0046091974 -0.023733245 -0.016176479 0.10143101
0002e0 2d ee 82 bc 3e 3e 28 bb e4 0f 24 3e fb 2a 6c bd
       -0.015982712 -0.0025671865 0.16021687 -0.057658177
0002f0 16 19 0d bd 2d 0d 8a 3d 72 e1 62 bd 00 64 b6 3c
       -0.034447752 0.06740794 -0.055390783 0.02226448
000300 ea 5d 61 bd 67 f4 0e bc 4f 6c 4c bd 49 83 67 bc
       -0.055021204 -0.008725262 -0.04990798 -0.014130422
000310 05 14 55 bd 28 22 1a bd 40 c4 01 3c 48 05 8e 3b
       -0.052021045 -0.03763023 0.007920325 0.0043341257
000320 f6 5a 3a 3d 9f 0e 54 bd 74 51 5e bd 24 54 b3 3b
       0.045496903 -0.051771756 -0.0542769 0.005472677
000330 2d 7a 67 bd f9 bc f8 bc cd b4 c7 bc 56 6d c7 3d
       -0.056513 -0.030363547 -0.024378205 0.09737651
000340 07 6d 8a 3b fb ab 7d 3c 7d 65 6e bc 7b b9 0a 3e
       0.004224423 0.015482898 -0.014550564 0.13547318
000350 10 16 66 39 43 18 a1 3c bf b7 c0 3c 09 39 56 3e
       0.00021942728 0.01966489 0.023525117 0.20920195
000360 64 16 2b 3d 91 3b 92 bd dc 3a 7e 3d 50 68 a6 3b
       0.0417694 -0.07140268 0.06206785 0.005078353
000370 3d e9 a4 3c 55 54 9a bd 6f 08 01 3e b9 16 ef 3d
       0.020130748 -0.07535616 0.12600873 0.11674256
000380 54 d7 66 3d 68 4f e0 3d 86 5f f1 bc 43 a8 c5 3c
       0.056357697 0.109526455 -0.029464494 0.024128085
000390 61 97 e5 3c 90 ea 52 3e 35 a8 99 bb 5b d4 63 be
       0.028026285 0.20597291 -0.0046892413 -0.22248976
0003a0 54 d9 48 bc a9 8c 4d 3d 6c 93 a2 3d c0 35 18 3e
       -0.012258846 0.050182972 0.07938275 0.14864254
0003b0 81 5d 7c 3d 29 b9 05 be b0 27 b8 bd c1 e5 45 3d
       0.06161261 -0.13058914 -0.08991945 0.048314814
0003c0 3c 09 dd 3c 40 b7 f3 3a 90 20 4a 3e 60 1e 3f bb
       0.026981942 0.0018594041 0.19738984 -0.0029162392
0003d0 22 20 74 3d d3 b9 5d 3d 43 86 81 3d cb 9f 4b bd
       0.059600957 0.054132294 0.063244365 -0.049712937
0003e0 fc 32 83 be fe 0a 66 3c 18 62 8a bd c7 ab 68 bd
       -0.25624835 0.014040707 -0.06756991 -0.056804445
0003f0 74 7d dc bd f2 81 d3 3c cf d4 b6 3d 17 20 da 3c
       -0.10766116 0.025818799 0.08927309 0.02662663

fc2.bias f4 [128]
000000 54 e8 a1 bd a6 bb 3f be 48 33 b5 bd 2a d4 0b 3d
       -0.07905641 -0.18723926 -0.08847672 0.034137882
000010 9f d5 2b 3c 47 23 f0 3d df d9 a3 bc c9 ed 7a bc
       0.010487943 0.117254786 -0.02000135 -0.015315481
000020 82 b8 80 bd 63 d4 2e bd 5c 1c d7 3d 30 8d c7 3e
       -0.06285192 -0.042683017 0.10503456 0.38974905
000030 d9 48 b1 3e 46 76 3d bc d4 40 d7 3d 1e cb 7e be
       0.3462589 -0.011563843 0.10510412 -0.2488217
000040 bd 95 d2 bd ee e0 ce be 93 8c 4b bd 12 0b bc bd
       -0.102824666 -0.40405983 -0.04969461 -0.09181799
000050 1a c4 42 bd 98 3a 06 3e 96 c7 42 3d b7 bf 3d be
       -0.0475503 0.13108289 0.04755362 -0.18530165
000060 53 0a a3 be 4f f0 c5 ba ec 8d e1 bd 4f 6f 89 3d
       -0.31843814 -0.0015101525 -0.110133976 0.067106836
000070 b3 95 c3 3d e8 ad bb 3d 1e 24 4d 3d 70 56 8f 3d
       0.09550037 0.09164029 0.050083272 0.069989085
000080 57 93 a6 bd 0a d4 67 bd 23 6e 89 3d 12 f6 95 bd
       -0.081335716 -0.0565987 0.0671046 -0.07322325
000090 eb 34 dd 3c fc 1f 14 3e 14 f7 a4 be 81 d0 9e be
       0.027002772 0.14465326 -0.32219756 -0.3101845
0000a0 2f 89 86 bc e7 4c 41 3e 6a 3c 11 3e 86 19 d4 bd
       -0.016422836 0.18876992 0.14183202 -0.10356431
0000b0 4a 1c 92 bc 87 e5 d8 bd f6 4b 9f 3d fe ac 80 3e
       -0.017835755 -0.10590654 0.0777816 0.25131983
0000c0 83 76 11 3e fb 9b 85 3d 7d 73 b9 bc 5d 26 07 be
       0.14205365 0.065238915 -0.022638077 -0.13198228
0000d0 9f ee f7 3d cf 3f c5 3d be 5f b1 be 0e 9f 72 3d
       0.1210606 0.09631311 -0.34643358 0.059233718
0000e0 90 84 4b 3e 6a 84 3d 3d 66 4f eb 3d f9 14 a6 3c
       0.19874787 0.046268858 0.114897534 0.020273672
0000f0 73 ce 9c 3e 18 f7 9c bb 08 56 06 be ce 4a 30 be
       0.30626258 -0.004790198 -0.13118756 -0.17216036
000100 0b 90 dd 3d 5e f9 a3 3d 34 34 11 3e 51 47 af 3d
       0.1081849 0.080065474 0.1418007 0.085585244
000110 35 a1 9f 3d 31 8b 84 3b b3 17 a4 bc 70 f4 ca bd
       0.0779442 0.004044913 -0.020030832 -0.09909904
000120 44 e9 fa 3d f7 59 cb bd c1 c3 77 3d 9e e3 c2 bc
       0.12251523 -0.09929269 0.06048942 -0.023790177
000130 59 de a7 3e 4c 8b a6 3e 18 16 98 3e 54 09 2a 3e
       0.32786825 0.3252815 0.29704356 0.16605121
000140 27 41 e5 3d 09 31 db bd a6 bb ef bc 67 b5 e6 bd
       0.111940674 -0.10702712 -0.029264282 -0.112650685
000150 35 8a 3e 3c ef 6d 35 bd cf a0 5b 3d db f5 0f be
       0.011629631 -0.044294294 0.053620156 -0.1405863
000160 fe 17 f4 3d 19 65 1a 3d c6 68 0b 3e ea 5e c9 bd
       0.11918639 0.03769407 0.13614187 -0.098325565
000170 15 29 1e 3d ef 78 1b be 39 1d 01 3d 73 36 c4 bd
       0.038613398 -0.15182851 0.03152201 -0.09580698
000180 7e 54 4c bd ca 0d b1 3d fb 97 01 3e b5 57 23 3d
       -0.049885266 0.08645208 0.12655632 0.039878566
000190 62 3a 31 3e 84 5b db bd 52 61 16 bd c6 fe e4 bd
       0.17307428 -0.107108146 -0.036713906 -0.11181407
0001a0 6c 5d de bd 51 b9 9e 3e 64 18 76 3d 42 61 00 be
       -0.108576626 0.3100076 0.060081854 -0.12537101
0001b0 95 3e 51 3d a2 2f 91 be ee 38 cb bc 6d f2 dc 3d
       0.051085074 -0.28356653 -0.02480742 0.107884265
0001c0 f0 76 a5 bd 30 da 81 3d b4 92 dc be 79 66 25 bd
       -0.08079326 0.06340444 -0.43080676 -0.04038093
0001d0 7e 0c 11 bd d6 ed 60 3d 31 88 9a bb 4d cb ed bd
       -0.035412304 0.054914318 -0.0047159423 -0.11611042
0001e0 49 4d 81 3d 7d 3f ce bb fd 4b 0f bc 7b 8f e4 bd
       0.06313569 -0.0062941895 -0.008746144 -0.11160179
0001f0 de 61 bf bd e9 9c b1 bd 5e 09 0f bd 81 88 d2 be
       -0.093448386 -0.08672506 -0.034921043 -0.4111977

fc3.weight f4 [5, 128]
000000 6a af 73 bd d6 f5 54 bd 96 0c 94 bc 79 ee 12 bd
       -0.05949346 -0.05199226 -0.018072408 -0.035871956
000010 06 dd a5 bd eb 92 26 3d 2b cc 09 bd d4 a8 9d bd
       -0.080987975 0.040667456 -0.033641975 -0.07698217
000020 82 b4 80 bd c6 c5 f3 bc d6 2a d4 3d 3c 93 c2 3c
       -0.06284429 -0.029757392 0.10359733 0.023751847
000030 b5 85 51 3d cb 32 ca bc d9 62 d1 bd 4a db b9 bc
       0.051152904 -0.024682423 -0.10223932 -0.022687573
000040 f8 d3 ac bd 20 ec d6 bd 16 73 f6 3c cb 64 8c bd
       -0.08438867 -0.10494256 0.030084174 -0.06855162
000050 03 81 18 bd 26 99 96 3d c0 d5 4f 3d db 40 47 bd
       -0.03723241 0.073534295 0.050740957 -0.048645835
000060 75 28 3c bd b2 5f cf bc 35 a8 85 bd fb 9a d5 bd
       -0.04593702 -0.025314186 -0.065262236 -0.10429951
000070 72 c6 dd 3b ac 78 0d bd b7 bc b4 3c 4b 16 06 3c
       0.0067680413 -0.03453891 0.022062642 0.008184026
000080 15 3b ad 3d 20 cd c2 bd d7 25 ea bd b9 87 d7 bd
       0.08458535 -0.09511781 -0.114329986 -0.10523934
000090 87 52 01 bb 53 7d 87 3d b7 17 91 bc 92 ac 06 bd
       -0.0019733028 0.066157006 -0.017711503 -0.03287942
0000a0 d7 20 a8 bd ff 95 01 3d 88 db 22 bd 9c d9 c5 bd
       -0.08209389 0.031637188 -0.039760143 -0.09660646
0000b0 41 5e 6d 3d 6a 2a 49 3c 6b 5f 4b bd f4 62 69 3d
       0.057951216 0.012278179 -0.049651545 0.056979135
0000c0 62 42 80 bd b8 81 99 3d 5f 6d cf 3d 7a f4 97 bd
       -0.062626615 0.07495445 0.10128283 -0.07419677
0000d0 74 27 a3 3d 0f f8 76 3d 14 3c e5 bd 96 a1 9c 3d
       0.079665095 0.06029516 -0.111930996 0.076480076
0000e0 ac ee 10 3d a9 67 8f bd f4 02 9d 3d 0b f2 f5 bc
       0.035383865 -0.070021935 0.07666579 -0.030022642
0000f0 14 1c 8e 3d 10 37 15 3d f2 14 52 bd e4 ae 14 bd
       0.06938949 0.036429465 -0.051289506 -0.0362996
000100 1f f5 80 3d e4 94 af 3d c9 3f af bd b7 f2 92 3d
       0.06296753 0.085733205 -0.08557088 0.071752004
000110 5e 69 c8 3d fa 88 40 3d cd 5f 08 bd 5f 01 8d 3d
       0.09785722 0.04700563 -0.033294488 0.06885027
000120 6b bb d2 3d b6 19 99 bd ff 83 73 3d 7b 46 8c bd
       0.102896534 -0.07475607 0.059452053 -0.068493806
000130 ba d3 7a 3d 7d ce 85 3c c7 93 0e 3d 08 91 98 bc
       0.061237074 0.016333813 0.0348089 -0.018623844
000140 d1 9a b9 bd 82 81 13 3d 89 d1 a1 bd a3 c1 83 3d
       -0.09062732 0.03601218 -0.07901294 0.06433418
000150 64 5e fe bc 14 b9 4b 3d 64 5a dd 3c 5f 2b 8c bd
       -0.031050868 0.04973705 0.02702064 -0.0684421
000160 0c fb 0b 3d ed 84 5f bd 7e 28 b2 3d 4f a5 b6 3d
       0.034174964 -0.054570127 0.086991295 0.08918249
000170 28 74 6a bd 6f 4a 1d 3b 8d b8 14 bd f2 c7 23 bd
       -0.05723968 0.0024000665 -0.036308814 -0.039985605
000180 eb ed 86 bb f9 13 55 bd 2e e3 3f 3d 42 d5 58 3c
       -0.0041177175 -0.052021 0.046847515 0.013234438
000190 94 0d b2 3d 75 4e a2 bd 26 84 05 3d 85 da 0d bd
       0.08693996 -0.07925121 0.03259673 -0.034632225
0001a0 6c 6f ac bd aa 7d 82 3c 6f c5 a5 3d a9 0f 3b bd
       -0.084196895 0.015929062 0.08094298 -0.04566923
0001b0 83 f3 9a bd 41 33 1f bd 49 e5 69 3d 1e 11 cd 3d
       -0.075659774 -0.03886724 0.05710343 0.100130305
0001c0 38 01 78 3c e2 aa 88 3d 69 18 c6 bd 9d d7 2a bc
       0.015137009 0.06673218 -0.096726246 -0.010427383
0001d0 30 33 fb bc 73 52 8c 3d 3d 2a 2e 3d f4 f3 96 3c
       -0.030664057 0.068516634 0.04252075 0.018426873
0001e0 41 3f f7 3c 1f 64 2f 3d c0 33 59 bd 68 5d 36 bd
       0.030181529 0.042820092 -0.05302787 -0.044522673
0001f0 b0 1c 90 3d d9 82 63 3d 20 c2 90 bd 15 30 f6 bc
       0.07036722 0.055544708 -0.070682764 -0.030052224
000200 01 b8 b1 bd b0 1b 40 3e b1 30 0f 3e d5 c4 61 3d
       -0.08677674 0.18760562 0.13983418 0.055119354
000210 cd a5 99 bd 38 12 ae bd 70 45 74 3d c9 cd 51 bc
       -0.07502327 -0.08499569 0.059636533 -0.012805411
000220 a8 a7 0e be 67 1a 8b bd 24 ba 97 bd b1 61 46 3d
       -0.13931143 -0.06792145 -0.074085504 0.04843301
000230 15 2f 7a be 15 75 b5 3d d7 3e e9 3b a4 8c 5c 3e
       -0.24432023 0.08860222 0.007118087 0.21538025
000240 8b d5 c4 3d 55 c8 fb bd 58 7a 4c bd 2e 32 8a 3d
       0.096110426 -0.1229407 -0.049921364 0.06747852
000250 e5 d0 c2 3d de 83 fd 3d dd 2f 5f bd 29 c8 bf bd
       0.095125 0.12378667 -0.054489005 -0.093643494
000260 70 0b 8d 3e eb e6 e3 3d 9d a0 c4 3d 84 75 bc 3c
       0.2754779 0.111280285 0.09600947 0.023005255
000270 69 ff c5 3c 50 48 a0 3d fc 0b f1 bd 74 79 75 3b
       0.02416964 0.078262925 -0.11769864 0.0037456425
000280 75 87 23 bd eb e8 c3 3d 44 5a 53 3c 72 77 72 3d
       -0.039924104 0.0956591 0.012899939 0.059195943
000290 26 8e f9 3d 84 da 2f bd 02 ea 8c 3e 01 17 10 bd
       0.12185316 -0.042933002 0.27522284 -0.03517819
0002a0 09 5d 60 3d 53 b0 8c 3d 6d 9e b2 3d 4e 08 bb bd
       0.054776225 0.06869569 0.087216236 -0.09132443
0002b0 03 6a 98 bd 12 ae a3 bd 25 a3 87 3d 0d 82 66 be
       -0.07442095 -0.07992186 0.06622914 -0.22510548
0002c0 c0 64 55 3d b5 4b fc 3d 7a 5f 41 3d be c5 d0 3d
       0.052098036 0.123191275 0.047210194 0.10193966
0002d0 5d 81 8e bd 4c 35 e5 bd d7 ad d0 bd 24 92 e6 bd
       -0.06958268 -0.11191806 -0.10189407 -0.11258343
0002e0 a2 32 3c be 2c a2 58 3d eb e1 bf bd 84 99 c3 3d
       -0.1837869 0.052889034 -0.09369262 0.09550765
0002f0 d9 8f 65 be 79 44 a6 bd 5f 12 86 bd 69 7b 89 bd
       -0.22418155 -0.08118529 -0.06546473 -0.06712992
000300 cb 4b b4 bd fb 66 bd bd ba 72 70 3b 42 27 a7 bd
       -0.08803519 -0.092481576 0.0036689476 -0.08161785
000310 a2 45 96 bd a1 de ac bd 12 f9 a0 3d 99 12 1f bd
       -0.073375 -0.084409006 0.078600064 -0.038836095
000320 05 11 be bd 30 77 9b 3d b0 7b d9 bd db f1 91 3d
       -0.0928059 0.075910926 -0.10619295 0.071262084
000330 46 28 6e be 5a 11 9b be b4 f7 87 be 8f 63 af 3d
       -0.2325755 -0.30286676 -0.2655617 0.08563911
000340 02 86 35 3d 8b 03 89 bd e2 9d 2e 3d ac d6 46 bd
       0.044317253 -0.06690129 0.042631038 -0.04854457
000350 34 e1 9e 3d 77 2b 53 bd 38 a4 c6 bd df be f2 3d
       0.07757798 -0.051555123 -0.09699291 0.11852812
000360 bb 10 dc bd f2 bd 86 3d 9a 16 93 bd 57 72 d6 3c
       -0.107453786 0.06579198 -0.07182045 0.026177568
000370 95 0a 61 3d 07 ca b2 bc 65 41 55 3d 87 51 c6 3d
       0.054941732 -0.02182485 0.05206432 0.09683519
000380 15 0e 18 bd a7 8e 91 3d fb 24 05 be b6 0a d3 bd
       -0.037122805 0.07107287 -0.13002388 -0.10304777
000390 2f 1b a9 bd d0 8a a4 3d 9c e0 d6 bd d9 57 d5 3d
       -0.08257138 0.08034289 -0.104920596 0.10417146
0003a0 4a 0e 9c 3d 53 0b 8f be 63 b9 f2 3d 33 d0 b0 3d
       0.07619913 -0.27938327 0.11851766 0.08633461
0003b0 90 2a 64 bc 0b b5 a8 bb 18 e4 97 bd dc 89 cd 3d
       -0.013926163 -0.005148535 -0.07416552 0.1003606
0003c0 da d3 93 bd 25 03 e7 bd da 85 0c be 81 f1 e5 3d
       -0.07218142 -0.11279897 -0.13722935 0.11227704
0003d0 6c 8f a7 3d 5e 4f 9f 3d ab 9c 9c bd ac 08 b8 bd
       0.081816524 0.0777881 -0.076470695 -0.08986029
0003e0 aa ed 08 be 24 5f 91 bd bc 3f 2e 3d ac 33 bd bd
       -0.13371912 -0.07098225 0.04254125 -0.09238371
0003f0 bc 09 fe bc 0a 5f 69 bd d2 6f dc bd 27 61 15 bd
       -0.031010501 -0.056975402 -0.107635155 -0.036469605

fc3.bias f4 [5]
000000 87 34 43 3e c1 bf b7 be f9 b1 3c bf f7 1e b2 3e
       0.19063006 -0.35888484 -0.73709065 0.3478925
000010 6b 8d f5 3e
       0.47959456
